HAFNet_final.pth (torch, 240634 bytes, 36 tensors)

cnn_stem.stem.0.weight f4 [16, 3, 1, 5, 5]
00000000: d799 10bb 67fb 553d 61df 27bc 6882 283c
00000010: af7b 043d 7cab a0bd 587b b23b ed0e 663d
00000020: 94c8 943d d600 4d3d a66c 32bd ae61 633a
00000030: 2f08 493c c76a eb3c bdd5 9d3d 0fac a13d
00000040: 8405 db3c 90ee 043d b6c8 b5bd 2d25 06be
00000050: 4660 cabb 1b55 b33b 90a3 d2bd 3d83 a5bc
00000060: 44d1 acbd 7bda 273d c05f de3d 090e e2bd
00000070: a71e 983d f223 44bc 8ec0 a4bc 6b08 a73d
00000080: 950e 6bbd 5fee 87bd e20c eabd 6565 ed3c
00000090: fd38 b3bc 015b 8bbb fb0d 55bc 41f9 cebd
000000a0: dfce 9bba 857e 7bbd 6eaf ddbd 350e f03d
000000b0: ad08 8b3c ac9b be3d 275d 3dbd 8bc2 2b3c
000000c0: 1dcc a7bd eb99 a73b 9d53 8e3c 5200 173d
000000d0: 2036 123d 12fd cdbc 409d 82bd bfb1 ae3d
000000e0: 835b f23d 59fa 6ebd 73d2 a33d d3f2 efb9
000000f0: e951 86bc 0a9e 703b 9c77 cbbd 225e b63d
00000100: d025 a4bd fb29 413d ae82 91bd 312b 623d
00000110: ebd3 303d 05f5 48bd f6c5 b63d 1749 a0bd
00000120: f0ac 693d edf1 a8bd df0a a3bd 1d06 97bd
00000130: f61f 5f3d 9f1a 06bd 385b 0c3e b352 dabc
00000140: 44c0 f2bc 2427 a63d 8c18 fa3d d8cc 1d3e
00000150: eb33 ecbd ba10 d33c f70e 9d3d 77c5 eebd
00000160: 8e6e ea3d e788 953d 5d66 383c 5e06 6ebd
00000170: bc43 c23d 19e5 9bbd 1c5b 8d3d bdb0 39bd
00000180: ed6a d33d e9ce 9aba 2db5 c83d 6a41 943d
00000190: 5dcd 99bd dd46 cf3d 053f 92bd f31f 9b3d
000001a0: f112 d73d b387 cebd 9930 9fbd e19d 853d
000001b0: e2fc 0d3e 16a4 9e3b e065 043d 61b2 d13c
000001c0: f071 c6bd c523 58bd b935 a33d ac2a 47bd
000001d0: 5e6d 223c 5364 44bc 8ce6 03bc 190c 3f3c
000001e0: 0611 66bd 8c42 23bb 51f0 473c 9095 80bc
000001f0: 9e5d 9abd 11b2 e93c 34a0 443c 4c71 80bd
00000200: 3566 8bbd 5794 16bc d72a af3c ca4f bebc
00000210: 46e8 e43d 63b5 1abd 9bbf 7a3c cb4c b43d
00000220: 0d69 65bd f5df 403c 52d1 953d e35e 95bd
00000230: c376 b8bd b5b1 c8bd 0ced aebc a085 623d
00000240: c210 9e3c 73a0 cf3d 1d5f 343d 21cf 4fbd
00000250: af34 63bd c72f 32bc 30bd 123c 6ad4 9b3d
00000260: 5f68 7f3d 2346 1bbd 8707 3b3d 153b c2bd
00000270: 8aa3 56bd e619 8a3d 7814 d5bd 07a9 a73d
00000280: cef2 a63d 4bf0 783c f84b 19bd e0de af3d
00000290: 4351 513c 955a 73bd c3e5 f0bc e059 eabd
000002a0: 2781 b6bc 09d6 2fbb a86d abbb 910f 8fbd
000002b0: 1140 b8bd ec39 61bb cbc0 5abd abec 12bd
000002c0: fa8f cc3d d1d7 fe3c 0523 b63d 3efe 373d
000002d0: 3615 f3bc 08ad 073d d9ad 0e3d c8fb 9d3d
000002e0: be29 643c 9eb8 35bd 4ae1 ae3d 72d6 66bd
000002f0: ef8c 64bd 1a66 843b 4717 7bbd de15 763d
00000300: 9f0e d3bb 7cfc 0fbe 8385 573d 4960 ebbd
00000310: 76c2 b93b 7707 c7bd 0ec3 893c cbfe 90bd
00000320: 2cc2 9d3b f063 823d d329 b0bd cf4c a6bc
00000330: 5659 113d 2db1 33bd 3e26 7fbc 3134 aa3c
00000340: 61eb f03d 2960 e0bd 70f9 d53c bb07 86bd
00000350: 6011 52bd e14b 523c 194f e23d c8bb 32bd
00000360: 4d4c 8fbb 438e 72bd 6448 67bd 00dd 3d3b
00000370: 6b3d d93c 06fd e4bc 5390 493d a7d4 e3bb
00000380: ae95 26bc a460 7dbd 82b2 cabd f7d4 95bd
00000390: db41 c7bb bb7f 97bd 2ca6 da3d f576 853d
000003a0: 9264 afbd 5da6 e5bd bfc4 4abd f331 dbbd
000003b0: 1eb0 a1bd fc75 c2bc 49b4 d63d 3b59 dc3d
000003c0: efbe 3dbd f450 48bd 7cba 243d 075d 393d
000003d0: e2d2 713d 9259 403d 1278 433c 5efc c3bd
000003e0: a0f7 76bd d904 d43b d218 813d 5e05 95bd
000003f0: 261c c13d f553 93bc 0c1d d63d 7110 053e
-0.0022064352 0.05224171 -0.010246129 0.0102849975 0.032344516 -0.07845208 0.0054468326 0.056166578
0.0726482 0.050049625 -0.043560646 0.0008673918 0.0122700175 0.028737439 0.07706783 0.07894146
0.026736028 0.032454073 -0.08876173 -0.13100119 -0.0061760275 0.005472792 -0.10285103 -0.02020418
-0.08438352 0.040979844 0.108581066 -0.11037833 0.074277215 -0.011971461 -0.020111348 0.081559025
-0.057386953 -0.066372626 -0.114282385 0.028979013 -0.02187776 -0.004252792 -0.0130038215 -0.10106135
-0.0011887214 -0.061399955 -0.10824476 0.1172146 0.01697191 0.09307036 -0.046231415 0.010483394
-0.081932284 0.005114784 0.017373854 0.03686554 0.03569615 -0.025145087 -0.06377649 0.08529996
0.11833861 -0.05834422 0.079991244 -0.0004576655 -0.01639648 0.0036715292 -0.09934923 0.08904673
-0.08015025 0.047159176 -0.07105003 0.05521697 0.04317085 -0.049061794 0.08924477 -0.07826441
0.05704969 -0.08249269 -0.07961058 -0.07374213 0.05447384 -0.03274023 0.13706672 -0.026650762
-0.029632695 0.08112934 0.12211713 0.15410173 -0.1153334 0.025764812 0.0766887 -0.11658757
0.11446868 0.07301503 0.011254874 -0.05811154 0.094855756 -0.07612056 0.06902143 -0.045334566
0.10323129 -0.0011810932 0.098001815 0.07239039 -0.07509873 0.10120938 -0.07140926 0.07574453
0.1050166 -0.10084476 -0.07772941 0.06524254 0.13865998 0.004841338 0.032323718 0.025597753
-0.096897006 -0.052768487 0.07969231 -0.04862468 0.0099137705 -0.01198681 -0.008050572 0.011660599
-0.05616858 -0.0024911491 0.012203292 -0.015696317 -0.07537387 0.028527291 0.012001086 -0.0627161
-0.06806604 -0.00919064 0.021382732 -0.023231406 0.11177115 -0.03777064 0.015304471 0.088037096
-0.056008387 0.0117721455 0.07315315 -0.07293489 -0.09007027 -0.0979952 -0.021353267 0.055303216
0.0192951 0.10138025 0.04403602 -0.050734643 -0.055470165 -0.010875649 0.008956239 0.07608874
0.062355395 -0.037908684 0.045661476 -0.09483925 -0.052402057 0.06743221 -0.10404295 0.08186536
0.0815178 0.015194009 -0.037425965 0.08587432 0.012775722 -0.059412558 -0.029406434 -0.114429235
-0.022278382 -0.0026830456 -0.005231578 -0.06985391 -0.08996595 -0.00343668 -0.053406518 -0.035870235
0.09988399 0.031108769 0.08893398 0.0449202 -0.0296732 0.033124 0.034833763 0.07714039
0.013925968 -0.044365518 0.08539064 -0.056356855 -0.055798467 0.004040492 -0.061301496 0.060079448
-0.006440952 -0.14061159 0.05261756 -0.11492974 0.0056689335 -0.09718221 0.016816642 -0.07079848
0.004814407 0.06366718 -0.08601727 -0.020300297 0.035485588 -0.04387014 -0.0155730825 0.02077684
0.11763645 -0.10955841 0.026119918 -0.06544443 -0.0512861 0.012835474 0.11050243 -0.043636113
-0.0043731094 -0.059217703 -0.05646552 0.0028970838 0.026518544 -0.027952682 0.049209904 -0.0069528404
-0.010167522 -0.06185974 -0.09897329 -0.073160104 -0.0060808486 -0.073974095 0.10676226 0.0651683
-0.08564104 -0.11213372 -0.049504038 -0.107028864 -0.0789492 -0.0237379 0.104836054 0.10759207
-0.046324667 -0.048905328 0.040216908 0.045254733 0.059039004 0.04696042 0.011930482 -0.095696196
-0.060294747 0.0064703044 0.06303562 -0.07276414 0.09429197 -0.01798437 0.10454759 0.12994553

cnn_stem.stem.0.bias f4 [16]
00000000: 060e a33d 3c79 dcbd 0552 65bc 3a0a 49bc
00000010: ca94 013e 2a4c f5bc 1223 4e3d 3b8f 8a3d
00000020: a8c5 97bd ffeb bb3d 50f8 c2bd 8e30 493d
00000030: e46d b43c 0037 cdbc 05c3 ef3c 69e7 ccbc
0.07961659 -0.10765311 -0.013996606 -0.012270505 0.12654415 -0.029943544 0.050326414 0.067656
-0.07410747 0.09175872 -0.09520018 0.04911857 0.022025056 -0.02505064 0.029267797 -0.025012689

cnn_stem.stem.1.weight f4 [16]
00000000: 29db 803f 438c 7b3f eaae 813f 38d7 813f
00000010: acbf 803f 785d 7d3f c19b 803f 56d3 7e3f
00000020: 7c0d 803f 5d5e 7c3f b4b8 7f3f 3f62 7b3f
00000030: cdec 7e3f a2eb 833f 81da 783f 05e0 7b3f
1.0066882 0.982609 1.0131505 1.0143805 1.0058494 0.98970747 1.0047532 0.99541223
1.0004115 0.98581487 0.9989121 0.98196787 0.9958008 1.0306284 0.9720841 0.983887

cnn_stem.stem.1.bias f4 [16]
00000000: b85e 5ebc 41f1 b8bc d61a 923c 7f06 1bbc
00000010: 6f47 f5ba effc 0b3c a7c5 8bbb fb3f 67bc
00000020: 29fe a93b e72c 633a 076b 083c 28fb ccba
00000030: 9ee3 e3bc aeea 33bd ccb9 f8bc 5825 bbb9
-0.013572387 -0.022575976 0.017835062 -0.009461998 -0.0018713305 0.008544191 -0.0042655054 -0.014114375
0.005187769 0.0008666054 0.008326299 -0.0015638815 -0.027818497 -0.04392498 -0.030362032 -0.00035695243

cnn_stem.stem.1.running_mean f4 [16]
00000000: 803e 2c3e 078a cebe cdd8 eb3d 156e bd3d
00000010: 001b 943d 30c1 2abd a154 b23d 4b51 1cbd
00000020: a2d1 2abc b8c6 12be 2073 43bd e629 2d3d
00000030: d2bf bf3d d13e a23d 445a 183e 2943 d6bd
0.16820717 -0.40339682 0.11515961 0.09249512 0.07231712 -0.041688144 0.08707548 -0.038163465
-0.010425957 -0.14333618 -0.047717214 0.042276286 0.09362759 0.079221375 0.14878184 -0.104620285

cnn_stem.stem.1.running_var f4 [16]
00000000: 3ee5 183d 02fe 873d 9674 513d 883a 3f3c
00000010: 269a 323c dc41 b53c 7b6b 9d3c 5ed5 f33c
00000020: 3dad 3d3c 445e 603d e642 c83c d8ef 023d
00000030: a007 723d 2d75 fa3b 200f 173d 61cc 863d
0.037327997 0.06640245 0.051136576 0.01167167 0.01090101 0.02212613 0.01921629 0.029764827
0.011576948 0.0547774 0.024445962 0.031967014 0.059089303 0.007643363 0.03687966 0.06581951

cnn_stem.stem.4.weight f4 [32, 16, 3, 3, 3]
00000000: cbe0 30bd b77c 173d 847b a63c ca7a 0fbc
00000010: 694e eabb 7f07 e1bb 9bfc 2a3c fd99 ec3c
00000020: 0748 3f3d 0e6e 293d 1843 193d 3577 823d
00000030: 1b5f 3abc 0723 d73c a1f2 2c3d d85c 34bd
00000040: 0487 1e3c 2a94 d6bb 2631 e43c 812c 433d
00000050: 54ff 0b3c ee9f c83c d0f3 eb3c 2ec7 a0bc
00000060: 29f0 133c 42ed 34bc 267d ff3c f28b df3c
00000070: c8e0 183d 3f64 dc3c 2ab0 95bc 10c8 c83c
00000080: 2500 d13c b4f5 07bc 81a9 b8bb 38a1 983c
00000090: 15d0 853c 9813 ae3b 590f 203d 9edb a53c
000000a0: 9e56 bcbb 1808 183d 7724 e2bc 9e86 473d
000000b0: 8c8f 37bd 9969 24bd 58d3 0a3d ae43 ea3b
000000c0: 6751 873c c72c ccbc 0001 f13c 5b50 1dbc
000000d0: 3620 443d d6b8 52bd 74f8 5a3c c053 3bbc
000000e0: 92c9 3cbb 16bb 193d 549f b03b caa7 d7bc
000000f0: 134b f5bc cfed 933c 1584 d7bc ae87 eb37
00000100: 491a fe3c 4783 ccbb b7b7 3bbd 2830 f53c
00000110: 9182 30bd 3e61 42bb 2cc5 993c 932d a5ba
00000120: 7a76 1bbd 7cb6 d5bc 5423 0d3d 4527 01bd
00000130: 335a 97bc f91c 8a3a aca5 ee3c b066 98bb
00000140: a169 083d 7141 ebbc 6e2a 4fbd 7532 1fbd
00000150: 6004 82bc 952f dbbc 9214 b73b f5a6 45bc
00000160: b2a6 793b b71b 66ba 2f72 bcbc 2f46 5cbb
00000170: 1b6f 083c 8395 da3c 8d7b 103a 805f 9b3c
00000180: 2a9f 3e3b 3d14 a83c dc2b bc3c d4c7 2c3d
00000190: a3b5 25bd 2a04 6ebd ce73 bebc fa0a 14bd
000001a0: 4f6f 363d fd6d 313d d295 b4bc 403c 40bc
000001b0: 49cc 413b 988f 0a3d 7a1d aabc 0fea 25bc
000001c0: 9056 52bd 47ed 573b 13a4 6e3c 1880 26bb
000001d0: 968d 0cbd 618d 33bd 69dc ffbc abb4 c6bc
000001e0: 65f2 c6bc f6bd d2bc ceb6 3dbc afb2 e2bb
000001f0: cf31 b53c cfb7 fb3c a28f 5dbd 60ec db3b
00000200: 489f a9bc dc69 eabc 64bb f5bc 92ad 54bc
00000210: b905 223b 5e54 32bd c90e 99bb 924a 173c
00000220: 97b3 f13c 1b80 aa3c 7672 0ebd 0b61 8cbc
00000230: eea1 633b abdd f1bc 0808 003a c3af 913c
00000240: 4c81 133d 0432 3f3d 8694 00bd a40d 35bd
00000250: 2843 b63c 3c56 16bd 935e a9bb 696b 223d
00000260: 073d e73c 7ac6 2ebc e7a7 fdbc 9117 3ebd
00000270: a130 03bd 8c0e 0a3c 6843 e13c 35bd 8cbb
00000280: 518c 38bd 55a6 47bd 3968 30bd ced2 69bc
00000290: e74f 00bd 2ddc 32bd a682 cd3c 632b 6e3d
000002a0: 9f72 40bd b192 a8bb d0a5 18bd c178 63bd
000002b0: 2f3d a93c b851 3ebd 795b 11bd b73e e5bb
000002c0: 9516 1c3d e57b 5dbd 3986 39bd cc10 75bd
000002d0: cbca be3c 7b08 36bd 216e a5bc 26fb 2dbd
000002e0: d7e0 35bd eba7 e7bb 17de 8abc 03d7 61bc
000002f0: 00e6 37bd b919 68bc 9b85 00bd 3beb 223d
00000300: 7a80 c6bc 8124 733c b1b7 f0bc ebf2 1ebd
00000310: 69a6 8fbc 94c1 4b3d 864f cfbc 40bb 0c3d
00000320: 3a1d a7bc f45f 193d 6b3e b4bc b293 5f3c
00000330: 8ba7 d53c 01f9 163c 1423 e33b 6c0a ce3c
00000340: fa1b 51bd 7bab 1b3d 7c58 f7bc 06fe c2bc
00000350: c243 733c c5d9 c53c b37f 04bd dc3e 20bd
00000360: 809f 28bd a3f4 773c 14f5 1a3d 2b71 033d
00000370: c73e dabc 698d af3c 3c4a bebc ec9c 24bd
00000380: 6b69 253d efce c93c e28c d8bc 1567 eabb
00000390: 835a 1dbd 5803 8c3c b1e1 d8bc 84cb 7f3c
000003a0: 0af0 173d 99bc e0bc 38d3 1e3d 03fc 2c3d
000003b0: a53e 713c 5da1 3cbd 2ed8 12bb c3a7 2ebd
000003c0: 8501 9cbb 400d 8bbb a510 ffbc 6aea 9cbc
000003d0: be1f a0bc 4233 073d 008a 2f3b 65e5 513c
000003e0: 9c80 343c a988 683c e56c a7bc 47b3 563d
000003f0: 31e5 8d3c d316 853c 9202 7dbc c6bc 7f3c
-0.04318313 0.03698417 0.020322569 -0.008757303 -0.0071504605 -0.0068673487 0.010436202 0.028882021
0.04669955 0.041364722 0.0374175 0.06370393 -0.011375214 0.02626182 0.042223576 -0.044033855
0.009675745 -0.0065484243 0.027855467 0.047649864 0.008544762 0.024490323 0.028802782 -0.019626226
0.009029427 -0.011042895 0.031187605 0.02728841 0.037323743 0.02690327 -0.018272478 0.02450946
0.025512764 -0.008298326 -0.005635441 0.018631563 0.016334573 0.0053123944 0.039077137 0.020246323
-0.0057476303 0.037117094 -0.027605278 0.048712365 -0.04481463 -0.04013977 0.03389296 0.0071491813
0.016518308 -0.024923695 0.029419422 -0.009601678 0.04788228 -0.051445805 0.0133649 -0.011433542
-0.0028806669 0.037531935 0.005390087 -0.026325125 -0.029943025 0.018057732 -0.026308099 2.8077364e-05
0.031018393 -0.0062412354 -0.0458295 0.02993019 -0.043093268 -0.0029660012 0.018770777 -0.0012602083
-0.037954785 -0.026087992 0.03445752 -0.03153159 -0.018475628 0.0010537199 0.029131733 -0.004650913
0.03330386 -0.028717728 -0.050577573 -0.03886648 -0.015871227 -0.026756087 0.005587169 -0.012063731
0.0038093743 -0.00087779335 -0.023003666 -0.0033611169 0.008327271 0.02668262 0.00055115746 0.018966436
0.0029086568 0.020517463 0.022970133 0.04218276 -0.040456425 -0.05810944 -0.02324858 -0.03614328
0.044539746 0.043317784 -0.022044096 -0.011733115 0.0029571226 0.033828348 -0.020766009 -0.010126605
-0.051352084 0.0032947825 0.0145654855 -0.002540594 -0.034314714 -0.043836 -0.03123303 -0.024256071
-0.024285505 -0.025725346 -0.011579229 -0.0069182734 0.022118477 0.030727295 -0.054092057 0.0067115277
-0.020705834 -0.02861493 -0.029996581 -0.0129808355 0.002472265 -0.04353749 -0.004670952 0.009234088
0.02950458 0.020813039 -0.034777127 -0.017136117 0.0034733969 -0.029524645 0.0004884009 0.017784005
0.03601198 0.046678558 -0.031391643 -0.04420246 0.02224882 -0.036703333 -0.005168745 0.039653216
0.028227342 -0.010667438 -0.030963851 -0.046409193 -0.032028798 0.00842632 0.027497962 -0.004295016
-0.04505569 -0.04874261 -0.043068144 -0.014271451 -0.0313262 -0.043667007 0.025086712 0.058146846
-0.04698431 -0.00514444 -0.037267506 -0.05553508 0.020659057 -0.04646465 -0.035487626 -0.0069960016
0.038107473 -0.054073233 -0.04529402 -0.059830472 0.023290059 -0.04444168 -0.020194115 -0.042475842
-0.044403877 -0.007069578 -0.016951604 -0.013784173 -0.04489708 -0.014166289 -0.031377416 0.039775115
-0.024231184 0.014840246 -0.029384466 -0.038805883 -0.017535405 0.049745157 -0.025306474 0.034358263
-0.020399678 0.037445024 -0.02200242 0.013646053 0.026080867 0.009214641 0.006931672 0.025151454
-0.05105207 0.038005333 -0.03019356 -0.023802768 0.014847698 0.024151692 -0.032348346 -0.039122447
-0.041167736 0.0151340095 0.03783138 0.032090347 -0.026641263 0.021429734 -0.023228757 -0.040188715
0.040383738 0.024634806 -0.026434366 -0.0071534016 -0.038416397 0.017091438 -0.026474806 0.015612487
0.037094153 -0.02743368 0.038775653 0.042232525 0.014724408 -0.046052326 -0.0022406685 -0.04264046
-0.0047609233 -0.004243523 -0.031135866 -0.019154746 -0.019546386 0.033007868 0.0026785135 0.01281104
0.011016991 0.014192739 -0.020437667 0.052417066 0.017321201 0.016246235 -0.015442507 0.015608972

cnn_stem.stem.4.bias f4 [32]
00000000: 27e3 ed3b 08ce 0ebd 57ef b03c 9682 a2bc
00000010: 19a4 98bc 274b acbc 3445 c2bc 9831 2c3d
00000020: 9557 1ebd f0f8 4fbc 2e56 3d3d 89ca 443b
00000030: 3cc8 27bc cbb9 f8bc 291b 0f3d 4bdf 5c3d
00000040: 4e31 1c3d 4324 0dbd 4293 313c 06d4 d9bc
00000050: ac43 f13c c54e bf39 2483 923c 5ea6 d4bc
00000060: 4bb5 f4bc 8f86 3c3c 9363 5ebc 82aa 03bc
00000070: 7511 8ebb 92d7 0f3d e902 1f3d 7b98 963c
0.0072597447 -0.034864455 0.021598501 -0.019837659 -0.018632935 -0.02103193 -0.02371464 0.042039484
-0.038657743 -0.012693629 0.046224765 0.0030027947 -0.010240611 -0.03036203 0.03493801 0.053923886
0.038132958 -0.03445841 0.010838332 -0.026590358 0.029451214 0.00036489047 0.017884798 -0.025958236
-0.029871603 0.011506691 -0.013573545 -0.008036258 -0.004335577 0.035117693 0.038821135 0.018383255

cnn_stem.stem.5.weight f4 [32]
00000000: f5ba 753f 5bde 823f 8593 7c3f 665f 803f
00000010: 4dab 7a3f 3a24 7c3f 19a2 7d3f 6fa7 863f
00000020: 690b 7f3f 9a10 7e3f 2bc9 7d3f aa03 7e3f
00000030: 8d8c 803f d96a 7a3f baf4 813f 3dde 833f
00000040: 8943 7b3f c0e6 833f c998 773f 7028 7a3f
00000050: 0434 783f 5504 813f ea32 783f 36fa 773f
00000060: 3f30 803f 1fb2 793f ff8a 7a3f 5e8a 7b3f
00000070: 00fe 753f 2723 793f 5f85 813f 407f 7e3f
0.959884 1.0224108 0.98662597 1.0029113 0.97917634 0.9849278 0.99075466 1.0519847
0.99626786 0.9924408 0.9913508 0.9922434 1.0042893 0.97819287 1.015281 1.0302197
0.98149925 1.0304794 0.96717507 0.9771795 0.9695437 1.0079447 0.9695269 0.96866167
1.0014724 0.97537416 0.9786834 0.98258007 0.960907 0.97319263 1.0118827 0.9941292

cnn_stem.stem.5.bias f4 [32]
00000000: 6db5 32bc c859 1fbc b3a4 a3bb b2a5 6abd
00000010: 2dff 8bbc 41e4 00bd 01e4 bebc ea5e 92bc
00000020: adec b5bc 5b80 4bbc d5ee 41bc a4ea 24bc
00000030: b3d4 0cbb 98a2 47bc 393d e8bc 4d9d 823a
00000040: 9263 19bd 55a2 03bd a778 d0bc 5bb9 a8bc
00000050: 53e4 a5bc c9a5 a0bc ec80 f9bb 1227 f4bc
00000060: f275 14bc ca7a 2abd ed2e 30bd 52c0 11bc
00000070: 4568 00bc 5b5a b7bc c563 25bd 452d 74bc
-0.010907513 -0.009725995 -0.004993999 -0.057286926 -0.01708945 -0.03146768 -0.02330208 -0.017867524
-0.022207582 -0.012420739 -0.011836727 -0.010065708 -0.0021489083 -0.012184761 -0.028349506 0.0009965092
-0.037448473 -0.032137234 -0.025448157 -0.020596197 -0.020250475 -0.019610303 -0.0076142456 -0.029803786
-0.0090613235 -0.041621007 -0.043013502 -0.00889595 -0.00783736 -0.022381952 -0.04037835 -0.014903371

cnn_stem.stem.5.running_mean f4 [32]
00000000: e416 8abf 27ee 2dbf a122 2ebf 2f81 8dbe
00000010: c815 27bf c3e7 19bf 5569 43bf 3362 28be
00000020: b782 1bbf 7040 aebe 3709 56be 3f87 dcbe
00000030: f5a0 b6be 91d2 2cbf 4a23 4abe d128 5abe
00000040: 9d92 1fbf f7e5 a0be c745 17bf 7069 f8be
00000050: cc5f 0fbf 3b8d 073d 1774 1dbf 83f7 a7bd
00000060: bd47 20bf 0533 9dbe 193e ab3e b821 94bf
00000070: 1f26 9cbe 1394 87bf da6e eabe f8c3 94bf
-1.0788236 -0.67941517 -0.6802159 -0.27637622 -0.6526761 -0.60119265 -0.763326 -0.1644371
-0.6074633 -0.34033537 -0.20901953 -0.43071935 -0.35669675 -0.675088 -0.19740024 -0.21304633
-0.6233309 -0.3142545 -0.59090847 -0.48517942 -0.5600555 0.033093672 -0.61505264 -0.08201506
-0.62609464 -0.30702987 0.33445814 -1.157279 -0.30497834 -1.0592064 -0.45787698 -1.1622305

cnn_stem.stem.5.running_var f4 [32]
00000000: b263 d83e c02f 1f3e 765c ab3e db26 203e
00000010: 8540 fd3e f48c 4b3e 9958 c13e a685 ec3d
00000020: 52f8 e43d 18f4 063e 0a03 873e b3e7 9c3e
00000030: cbb0 403e 39f8 8f3e b754 e53d eb7f b23d
00000040: 0d39 ae3e a103 953d 0b0b 123f dc47 403e
00000050: e9e0 c53e abad 3d3e 2a73 ea3e 68f3 193e
00000060: 6d90 0e3e 3fcd 7c3e eca6 c13e f9f5 ac3f
00000070: 7907 703e bd4f f63e d3b0 e93d 5923 8e3e
0.4226356 0.15545559 0.3346898 0.15639822 0.49463287 0.19877988 0.37762907 0.11548929
0.11180176 0.13179052 0.26369506 0.30645522 0.18817441 0.28119066 0.11197799 0.08715805
0.340279 0.07276083 0.570481 0.18777412 0.38648155 0.1852328 0.45790988 0.15034258
0.13922282 0.2468767 0.37822664 1.3512565 0.2344035 0.4810771 0.1141068 0.27761343

cnn_stem.stem.8.weight f4 [32, 32, 3, 3, 3]
00000000: 074a 80bc 3204 0a3d fc30 7a3a 0c90 a6bc
00000010: 9aa7 cf3c aa76 a13c bf2b 1dbb 115b 25bc
00000020: 6a9a 46bc 99f6 94bb 166c b0bb 71e2 b1bc
00000030: bf09 933c cc5b 9a3c 4c78 17bd 898e 143b
00000040: 48b3 4f3b 73bd 403c fecd 373c e15d d63c
00000050: cad5 00bd 7997 b3bc 85ae 2e3c 9afd 713c
00000060: c9d7 483c 36f9 b73c 8bcf 09bd af63 f5bc
00000070: 704f bb3c 815f 5b3c 3b6b a93b b557 143d
00000080: 80ff a8bc 8d2e 2ebb 82e1 73bc 3dbc 4d3c
00000090: 80ce 173c e7fa 003d cf94 e63c eea2 f13c
000000a0: 00bc 8e3c 65ac 9dbb c763 e93c 8079 523c
000000b0: 9e5e c63b bcf2 1fbc faa6 12bd 7f13 90bc
000000c0: a255 efbc c843 b8bc 825a fa3c f6af d43c
000000d0: 973a f43b 2ba6 73bc b7a6 973a 345d 0ebc
000000e0: ffb6 e6bb c8a4 ccbc ceaf 323c ff6f 90bc
000000f0: 8382 5b3c f9cb 96bc b886 2dbb 51aa 893c
00000100: 1ec7 483c 4b7b ec3c ad88 a8bb a325 973c
00000110: 15cf 9f3c 0bdb 81bc 575c e73b 20be e43c
00000120: 3080 6fbc 3285 9b3c 65c4 08bd e7ca b63c
00000130: c5f5 a13c 51ea b039 173f 5e3c 68b6 a6bc
00000140: 8bac 72bc f220 c738 dafc 113d e944 383c
00000150: ad0a 9cbc 52ed 193d 5583 86bc ddf7 a5bc
00000160: 96f1 aaba efca 9b3b 100c fe3c d7a3 f63c
00000170: 9d7b ca3c c19b e83c 22f2 bdbb c2ea 9e3c
00000180: 1a9d ca3b 301f fe3c f8ec ef3b 9371 863c
00000190: 2f8f c83c d49b cfbc dc0b ddbb 3d6c 413b
000001a0: 4093 88bb dcec c0bc 855f 96bb 07c9 c6bc
000001b0: 869a 23bd 9ec8 ab3c 2026 ba3b 6cc6 27bd
000001c0: 6b2c d6bc 19ea 00bc 280b c43c d169 55bc
000001d0: a254 f2bc 363a 14bd c0b2 65bc c034 cabc
000001e0: 9cdf 4fb9 2f7f d43b 6e88 143c 3e79 39bc
000001f0: 232e dcbc 329f 8cbb 8bf3 27bd ae89 44bc
00000200: 8b8e ae3b 9038 16bd cb21 f3bc 9aff 2bbc
00000210: 64c8 ae3c 3e55 2fbd f128 183c fa90 073c
00000220: b3a1 a63b 050a f4bc 2f1e d0bc e668 a9bb
00000230: 1710 d1bc 66d1 123c 679f aabc 814b cf3b
00000240: 6605 e73c 5d96 ddbc 41be a2b9 bd42 a03c
00000250: 793f 78bc c5b1 c2bc aef1 883c 4b25 1b3d
00000260: 5869 483c 9f1d 52bc 9d81 f03c 44ea 31bd
00000270: 040f 01bd 4120 ad3c 8076 ce3c 0570 93ba
00000280: 3284 d1bc 28f7 ef3c fce9 d23c c07f c0bc
00000290: c2ef 85bc 8b39 d5bb d0af e5bc 72d8 87bc
000002a0: 0275 de39 1e40 f7bc 2243 873c c9c4 0bbc
000002b0: 64ab 27bd 252d 02bd 6a56 0539 32fc 06bd
000002c0: 6cb4 7b3c 9cb3 043d f89a 12bb 2686 2c3c
000002d0: 804f af3c e28b ec3b bc82 8ebc 0d31 013c
000002e0: 0a14 13bd e61b 7fbc f5a7 bfbc a928 d13a
000002f0: 0e73 f73b 8913 81bc deef 863b 4ba2 fe3b
00000300: 631f 29bb a3d3 13bc 6e34 cabc 2cad c23c
00000310: 7c31 c1bb ba96 393c 10b4 073c 6698 babc
00000320: 1cab 87bb 59e0 6abc 97c4 203d 16da c0bc
00000330: 8ee5 f5bb 2d9a ce3c e292 013c 48f8 38bb
00000340: 211d 0bbd 5f87 9f3c 4e89 c4bc 592e e3bb
00000350: a458 993c 10d4 dbbc 57cf 0bbc 82a8 d63c
00000360: 7e15 98bc 77a6 c83c f4af da3c a941 17bc
00000370: 6bf6 1c3c 8c8a afbc 1f6f d5bc cd61 f9bb
00000380: b3d0 9a3c 936c ef39 5e98 a0bc 825b e43c
00000390: fa63 a93b ecd5 a53c 9993 813c fd17 eabb
000003a0: f866 32bc 298f 3d3d db3f c9bc 6b30 f2bb
000003b0: d6b8 6bbc 9f12 f23a c8b4 033c 2adf 303b
000003c0: 2f26 95bc 4c65 853c 2823 97bc 9869 4f3c
000003d0: 12ab 523c 634d 9d3c cb09 bf3b f428 653b
000003e0: dcd0 6d3c 632d 083c b423 7dbc a6f0 88bc
000003f0: ecfd 4a3b 2949 533c efad f6bc 268a 6d3c
-0.015660299 0.033695407 0.00095440424 -0.020332359 0.025348473 0.019709904 -0.0023982374 -0.010092513
-0.012121776 -0.0045459983 -0.0053839786 -0.021714421 0.017948983 0.0188426 -0.03697996 0.0022667965
0.0031692553 0.011763918 0.011218546 0.026167812 -0.031453885 -0.021922814 0.010661726 0.014769936
0.012258478 0.0224577 -0.033645194 -0.02995476 0.022865027 0.013389469 0.0051702536 0.036216456
-0.020629644 -0.002657804 -0.014885308 0.012557087 0.009265542 0.03148928 0.02814713 0.029496636
0.01742363 -0.004811811 0.02848996 0.012846351 0.0060537597 -0.009762462 -0.035803773 -0.017587421
-0.029215638 -0.022493258 0.030560736 0.025962811 0.0074532735 -0.0148711605 0.0011570071 -0.008689214
-0.007040858 -0.024980918 0.010906173 -0.017631529 0.013397816 -0.018407809 -0.0026478004 0.016804846
0.0122545045 0.028867384 -0.005143246 0.018450564 0.019507924 -0.015851518 0.0070605683 0.02792269
-0.014617965 0.01898441 -0.03339042 0.022313548 0.019770512 0.00033743915 0.0135648465 -0.02035065
-0.014811645 9.495196e-05 0.03564153 0.011246898 -0.01904806 0.037579842 -0.016420046 -0.020259792
-0.0013041969 0.004754416 0.031011611 0.030107422 0.024717147 0.028394582 -0.0057966867 0.01939905
0.0061832787 0.03102073 0.00732195 0.016411578 0.024482338 -0.02534286 -0.0067457985 0.0029513978
-0.004167944 -0.023550443 -0.0045890235 -0.02426578 -0.039942287 0.020969685 0.0056808144 -0.040960714
-0.026144227 -0.007868313 0.023931101 -0.013025717 -0.029581372 -0.036188327 -0.014019668 -0.024683356
-0.0001982436 0.006484888 0.0090657305 -0.01132041 -0.026877468 -0.0042914385 -0.041003745 -0.011995716
0.005327051 -0.036675036 -0.0296792 -0.010497952 0.021335788 -0.042805903 0.009287105 0.008274311
0.005085194 -0.029789934 -0.025405018 -0.0051699756 -0.025520368 0.008961057 -0.020827962 0.0063261394
0.028200816 -0.027049238 -0.00031040798 0.019563073 -0.015151852 -0.023766408 0.016716804 0.037877362
0.012232147 -0.012824445 0.02935868 -0.043436304 -0.03150846 0.021133544 0.02520299 -0.0011248594
-0.025575731 0.029292658 0.025746338 -0.023498416 -0.016349677 -0.006507104 -0.028037935 -0.016582701
0.00042430317 -0.03018194 0.016511504 -0.008530804 -0.040934935 -0.031781334 0.0001271606 -0.032955356
0.01536284 0.03239785 -0.00223702 0.01053003 0.021400213 0.007218824 -0.017396323 0.00788523
-0.035907783 -0.015570616 -0.023395518 0.0015957552 0.0075515574 -0.015756385 0.00411795 0.0077708117
-0.0025806061 -0.009022626 -0.024683204 0.023764215 -0.0058957916 0.01132744 0.008282676 -0.022777747
-0.004140271 -0.014335715 0.039249983 -0.023541491 -0.0075041717 0.025220001 0.007908555 -0.002822416
-0.033963326 0.01947373 -0.023991253 -0.0069330153 0.018719025 -0.026834518 -0.00853332 0.026203398
-0.018564936 0.02449344 0.02669523 -0.009231963 0.009580235 -0.021428369 -0.026053963 -0.0076105357
0.018898344 0.00045666526 -0.019603904 0.027875666 0.005169389 0.020243607 0.01581745 -0.007143973
-0.0108888075 0.046279106 -0.024566581 -0.007391026 -0.01438733 0.0018468684 0.008038707 0.0026988485
-0.018206684 0.016283654 -0.018449381 0.012659453 0.012858169 0.01920194 0.005830025 0.0034967037
0.014515128 0.008311602 -0.015450407 -0.016716313 0.0030974103 0.012895861 -0.030112235 0.014498269

cnn_stem.stem.8.bias f4 [32]
00000000: 68a5 c33c 013a 143c f73a 93bc fc65 1c3c
00000010: 858a eb3c e91e 4f3c 01ed f4bc f2d8 45bc
00000020: 9b8f cebc 118e b6bc 3e69 073d 94cd 08bd
00000030: b365 a4bc 3ba8 44ba 5198 b53c 57e4 f03b
00000040: fe47 e93c 0908 eabc 6cab eebb 39b3 84bb
00000050: 7e8f c23b 66d6 e43b 9427 9a3c a9f7 77bc
00000060: 9bac 8dbc e943 f83c 3783 9c3c 7f2b 043d
00000070: c87a c9bc 19e5 c4ba 41b2 f1bc 5a4a 133c
0.023882583 0.009047032 -0.017972453 0.009545799 0.028752575 0.012641647 -0.029898169 -0.01207565
-0.02521496 -0.02228454 0.03305935 -0.03339918 -0.020068025 -0.0007501875 0.022167357 0.007351439
0.028476711 -0.028568285 -0.0072836187 -0.0040496853 0.0059375158 0.006983566 0.0188177 -0.01513473
-0.017294219 0.03030582 0.019105537 0.032268044 -0.02459468 -0.001502189 -0.029503943 0.008989895

cnn_stem.stem.9.weight f4 [32]
00000000: da07 833f cb7a 783f f668 713f 0257 793f
00000010: 7588 813f d2c6 803f e956 713f 9c12 843f
00000020: f64f 7d3f 2cf0 843f e462 753f 6c3c 853f
00000030: 7347 813f 7c62 793f db56 843f 0959 853f
00000040: 0d20 8c3f 5954 883f 8218 913f 11bc 853f
00000050: 52be 8f3f d1dd 8c3f c4cb 893f 7dec 943f
00000060: 2729 913f a33e 843f d303 913f a735 813f
00000070: f429 7d3f c3c1 823f 1f01 7f3f 53b9 813f
1.0236771 0.9706237 0.9430078 0.9739839 1.0119768 1.0060675 0.9427324 1.0318179
0.98950136 1.0385795 0.9585402 1.0409064 1.009993 0.974159 1.0339006 1.0417796
1.0947281 1.0650741 1.1335604 1.0448018 1.1229956 1.1005193 1.0765309 1.163467
1.1340684 1.0331615 1.1329292 1.0094498 0.9889214 1.0215381 0.99611086 1.0134681

cnn_stem.stem.9.bias f4 [32]
00000000: 645b 003d f048 1fbd 1f41 80bd e4d8 02bd
00000010: be9f 653c 54f4 0f3c d0b9 50bd e302 023d
00000020: a408 1abc 82d3 2b3d da00 42bd 31cc 363d
00000030: 34f8 373c 0453 c9bc c619 fd3c a338 3e3d
00000040: 4262 5c3d 1fa2 973c 115a 353d 259f 373d
00000050: 1fbd cd3c 1dd1 5a3d 3bba e03c a709 9c3d
00000060: bbde 663d 61df 863c 27af 853d 047a 843c
00000070: 15ba f5bc 2c57 c73c 9a52 85bb 9884 583c
0.031337157 -0.038887918 -0.06262421 -0.031945124 0.014015136 0.00878628 -0.050958455 0.031741034
-0.009401474 0.041949756 -0.047364093 0.044628326 0.01122861 -0.024575718 0.030896079 0.04644073
0.053804643 0.018509923 0.044275347 0.044829506 0.025114594 0.053422082 0.027432552 0.076190285
0.056364756 0.016463937 0.06527548 0.016171463 -0.029995957 0.024333559 -0.0040686848 0.013215207

cnn_stem.stem.9.running_mean f4 [32]
00000000: c93c e0be 2f45 ffbe 0a8f 6fbe 58e9 9dbe
00000010: 53e9 fabf 077b 89bf 5dfb 20be 86dd 6b3e
00000020: 3fe6 5a3e fb1a 4f3f 6d2f 2bbe 2560 233e
00000030: b1cc c2bf 85a4 653e f310 183f 7d1c 86be
00000040: 5094 4c3f 11e7 c4be ac34 04bf cf6a 723f
00000050: f8a2 0bbf 4e14 1b3f 2d71 0abf 02a3 4b3f
00000060: 757f c1be 4b61 52be 2cd4 403f 8bcc 7b3f
00000070: dff2 edbe b648 4ebf ce12 21bf 9fba 87be
-0.43796375 -0.4985747 -0.23394409 -0.3084209 -1.9602455 -1.074067 -0.15720887 0.23033723
0.21376894 0.80900544 -0.1671731 0.15954645 -1.5218717 0.2242604 0.5940086 -0.2619361
0.79913807 -0.3845754 -0.5164287 0.94694227 -0.54545546 0.6057786 -0.5407894 0.79545605
-0.37792554 -0.20544927 0.7532375 0.9835898 -0.46474358 -0.805797 -0.6291932 -0.26509568

cnn_stem.stem.9.running_var f4 [32]
00000000: 46c4 f23e 6d71 0c3e c7d8 2b3e 40fe db3d
00000010: 7347 563f 5519 b03e 40be 2e3e b696 023f
00000020: 055b f03e cd20 863e d9b7 333e 24fc f73e
00000030: 8db7 c03e 44a4 223e bd1d 9d3d 8fd3 b73e
00000040: 7164 c93d 7d78 aa3d ab92 a03d cbf3 833e
00000050: 2d19 a63d 3ecc b43d 2831 a13d 35ac 013e
00000060: aa31 bd3d 2511 973d 7a32 cc3d f9e4 e13e
00000070: 4b4b 133e fdc8 c83e 57f8 443e 5d1c b23e
0.4741537 0.13715144 0.16781913 0.10741854 0.8370277 0.34394327 0.17064762 0.51011217
0.46944442 0.261969 0.17550601 0.48434556 0.37640038 0.15882975 0.07671688 0.35903594
0.09833611 0.083237626 0.07840475 0.25771937 0.08110271 0.088280186 0.07870704 0.12663348
0.09237988 0.07376317 0.09970565 0.44120005 0.1438419 0.39215842 0.19235359 0.34787264

pos_enc.pe f4 [150, 32]
00000000: 0000 0000 0000 803f 0000 0000 0000 803f
00000010: 0000 0000 0000 803f 0000 0000 0000 803f
00000020: 0000 0000 0000 803f 0000 0000 0000 803f
00000030: 0000 0000 0000 803f 0000 0000 0000 803f
00000040: 0000 0000 0000 803f 0000 0000 0000 803f
00000050: 0000 0000 0000 803f 0000 0000 0000 803f
00000060: 0000 0000 0000 803f 0000 0000 0000 803f
00000070: 0000 0000 0000 803f 0000 0000 0000 803f
00000080: a46a 573f 4151 0a3f ba7d 083f 0d94 583f
00000090: 3e39 9f3e 6b4e 733f 3a23 353e 83f6 7b3f
000000a0: 7675 cc3d 98b8 7e3f ae36 663d 6898 7f3f
000000b0: 5b81 013d 3cdf 7f3f 42ab 913c a3f5 7f3f
000000c0: 57d6 233c b9fc 7f3f 5a44 b83b f7fe 7f3f
000000d0: 1c3e 4f3b acff 7f3f 2015 e93a e6ff 7f3f
000000e0: 6d12 833a f8ff 7f3f 136a 133a fdff 7f3f
000000f0: 61cb a539 ffff 7f3f 5377 3a39 0000 803f
00000100: b7c7 683f 3311 d5be 0af2 663f b2e8 dc3e
00000110: 1b54 173f ec7b 4e3f f647 b23e a6fa 6f3f
00000120: f86f 4b3e a5e5 7a3f 86d9 e53d f361 7e3f
00000130: c870 813d f97c 7f3f 5ca5 113d 8ed6 7f3f
00000140: 3ed4 a33c e5f2 7f3f 9b43 383c dbfb 7f3f
00000150: d83d cf3b b1fe 7f3f 0815 693b 96ff 7f3f
00000160: 6812 033b dfff 7f3f 126a 933a f5ff 7f3f
00000170: 60cb 253a fdff 7f3f 5377 ba39 ffff 7f3f
00000180: c381 103e 2670 7dbf d745 7e3f ab7f edbd
00000190: c209 503f 582f 153f 6c2f 023f 296d 5c3f
000001a0: 6c4e 973e ef90 743f d7ee 2b3e 9e5d 7c3f
000001b0: c0ff c13d 4fd9 7e3f 4e69 5a3d c3a2 7f3f
000001c0: 1fb9 f53c 83e2 7f3f c631 8a3c adf6 7f3f
000001d0: 0d6e 1b3c 0dfd 7f3f a8cf ae3b 11ff 7f3f
000001e0: 929b 443b b5ff 7f3f 171f dd3a e8ff 7f3f
000001f0: 10b1 783a f9ff 7f3f 7ed9 0b3a feff 7f3f
00000200: cfbd 41bf 3055 27bf ec49 473f 9eaf 20bf
00000210: de1d 743f b12e 9a3e bc1f 273f edeb 413f
00000220: d761 c73e a7ca 6b3f c565 643e 098d 793f
00000230: 882e 013e 69f4 7d3f c88d 913d 465a 7f3f
00000240: dbcb 233d 94cb 7f3f a040 b83c 6cef 7f3f
00000250: c93c 4f3c c2fa 7f3f a714 e93b 58fe 7f3f
00000260: 5712 833b 7aff 7f3f 0c6a 133b d6ff 7f3f
00000270: 5ecb a53a f3ff 7f3f 5277 3a3a fcff 7f3f
00000280: 107c 75bf 2c3c 913e d8da a53e 4032 72bf
00000290: 7ffc 7f3f e972 29bc abca 463f f14c 213f
000002a0: 4377 f53e 40a9 603f ed11 8e3e 7cf2 753f
000002b0: 1d3c 213e 81ce 7c3f 21db b53d 1efd 7e3f
000002c0: f4b6 4c3d 19ae 7f3f fb4d e63c 19e6 7f3f
000002d0: 7e85 813c cff7 7f3f bbac 113c 69fd 7f3f
000002e0: ddd6 a33b 2eff 7f3f 8944 383b beff 7f3f
000002f0: 333e cf3a ebff 7f3f 2615 693a f9ff 7f3f
00000300: 8c0f 8fbe b8cd 753f 76e5 6bbe 531d 79bf
00000310: 4e78 723f 6d3f a4be 8830 603f 352f f73e
00000320: 688c 103f 3249 533f fc7d a93e e290 713f
00000330: 6e20 413e e367 7b3f c219 da3d 518b 7e3f
00000340: d19c 753d 128a 7f3f be2c 0a3d b3da 7f3f
00000350: 436c 9b3c 34f4 7f3f 05cf 2e3c 45fc 7f3f
00000360: 589b c43b d2fe 7f3f 031f 5d3b a1ff 7f3f
00000370: 08b1 f83a e2ff 7f3f 7cd9 8b3a f7ff 7f3f
00000380: 4630 283f bdff 403f 70b6 36bf 5e4f 33bf
00000390: 6ee8 4c3f bc74 19bf 4484 723f baf8 a33e
000003a0: 72eb 243f b3cc 433f de60 c43e c66b 6c3f
000003b0: 50d3 603e eac0 793f ba46 fe3d e904 7e3f
000003c0: 323e 8f3d 815f 7f3f 5e31 213d 3bcd 7f3f
000003d0: a252 b53c f2ef 7f3f 2af1 4b3c ecfa 7f3f
000003e0: c55f e53b 65fe 7f3f bcfc 803b 7eff 7f3f
000003f0: ed11 113b d7ff 7f3f 6628 a33a f3ff 7f3f
0.0 1.0 0.0 1.0 0.0 1.0 0.0 1.0
0.0 1.0 0.0 1.0 0.0 1.0 0.0 1.0
0.0 1.0 0.0 1.0 0.0 1.0 0.0 1.0
0.0 1.0 0.0 1.0 0.0 1.0 0.0 1.0
0.84147096 0.54030234 0.53316844 0.8460091 0.3109836 0.9504153 0.17689219 0.9842302
0.099833414 0.9950042 0.05620449 0.9984193 0.031617504 0.99950004 0.017781857 0.99984187
0.009999833 0.99995 0.0056233825 0.9999842 0.0031622713 0.999995 0.0017782785 0.99999845
0.0009999998 0.9999995 0.0005623411 0.9999998 0.00031622782 0.99999994 0.00017782794 1.0
0.9092974 -0.41614684 0.9021307 0.43146282 0.5911271 0.8065784 0.34820527 0.93741834
0.19866931 0.9800666 0.1122313 0.9936821 0.063203394 0.9980007 0.03555809 0.9993676
0.019998666 0.9998 0.011246587 0.99993676 0.006324511 0.99998003 0.0035565514 0.9999937
0.0019999985 0.99999803 0.0011246821 0.99999934 0.0006324556 0.9999998 0.00035565588 0.99999994
0.14112 -0.9899925 0.9932532 -0.11596616 0.8126489 0.58275366 0.5085361 0.86104065
0.2955202 0.9553365 0.16790329 0.9858035 0.094726086 0.99550337 0.053323083 0.9985773
0.0299955 0.99955004 0.016869437 0.9998577 0.009486687 0.999955 0.005334813 0.99998575
0.0029999954 0.9999955 0.0016870227 0.99999857 0.00094868336 0.9999996 0.0005334838 0.9999999
-0.7568025 -0.6536436 0.7784717 -0.6276797 0.95358074 0.30113748 0.652828 0.7575062
0.38941833 0.921061 0.22304447 0.9748083 0.12615407 0.99201065 0.07107121 0.9974712
0.039989334 0.9992001 0.022491753 0.99974704 0.01264877 0.99992 0.0071130577 0.9999747
0.003999989 0.999992 0.0022493629 0.9999975 0.0012649109 0.9999992 0.0007113117 0.99999976
-0.9589243 0.2836622 0.32393527 -0.94607925 0.99994653 -0.010342338 0.77652997 0.6300803
0.47942552 0.87758255 0.2774805 0.96073127 0.15745588 0.987526 0.08879686 0.99604976
0.049979165 0.99875027 0.028113356 0.99960476 0.015810724 0.999875 0.00889128 0.9999605
0.004999979 0.9999875 0.0028117022 0.99999607 0.0015811383 0.99999875 0.0008891396 0.9999996
-0.2794155 0.96017027 -0.23036751 -0.9731037 0.9471482 -0.3207964 0.8757405 0.48278204
0.5646424 0.8253356 0.3310393 0.943617 0.18860027 0.98205394 0.10649444 0.9943133
0.059964005 0.99820054 0.033734076 0.99943084 0.018972522 0.99982 0.0106694745 0.9999431
0.0059999637 0.999982 0.0033740408 0.99999434 0.0018973658 0.9999982 0.0010669674 0.99999946
0.6569866 0.75390226 -0.7137213 -0.7004298 0.8004216 -0.5994375 0.9473307 0.320257
0.6442176 0.7648422 0.38355154 0.9235195 0.2195561 0.9755999 0.12415834 0.9922624
0.06994285 0.997551 0.03935372 0.9992253 0.022134129 0.999755 0.012447635 0.9999225
0.006999942 0.9999755 0.0039363783 0.99999225 0.0022135929 0.99999756 0.0012447953 0.9999992

transformer_enc.layers.0.self_attn.in_proj_weight f4 [96, 32]
00000000: 6e3c 5ebd a243 0dbe 6c4b 4bbe e54d fabd
00000010: 1c8a 95bc 244d 37be cb6a 48be dadd 4ebe
00000020: 8b8e 4e3b c7ee 223e 89ef 023e c4a3 383e
00000030: f12b 213e e6fe d0bc d6cf e13c 7d7c 2e3e
00000040: ed31 40be 3991 533e 139c 063e 9fea e63c
00000050: 6a04 3cbe 5246 0e3e c1fa 86bd 3589 24be
00000060: 4c89 623e 49ed 17bd edb9 17be 4456 ed3d
00000070: 2f88 3fbe 9e9d 18be 2fda 17bb 9847 06bd
00000080: c505 1a3e be8a 073e 3f6f d83d 4dfa d3bc
00000090: c03e 753d 9cd4 043e 6405 2e3e 3e23 493e
000000a0: 36f4 3b3e 505b 013e 7e02 9dbd 5346 1c3e
000000b0: 5aa4 0fbe 2d9f 13bd 0a88 81bd 5dec 4a3e
000000c0: d01b c83b db21 1abe 950d 21be 1fef 163e
000000d0: 38c0 363e dedb df3d 8935 c7bd 6aed d33d
000000e0: c996 d2bd 3aae 29be b226 e73d af7b 4d3d
000000f0: 56d8 2b3e a6d9 06bd b72b 1a3c 5f55 6fbd
00000100: 700c 843d a04f 413e ba3f 70bc 148d eb3d
00000110: 012d a9bd ff85 42be 0db5 31bd 4c02 2ebe
00000120: babe c5bb 43ef 683d fb40 cebc 4419 0bbe
00000130: 3461 273e e4a7 91bc a58a 00be 0c85 08be
00000140: 1d7c 253e 7cd5 57be c127 8cbd cea9 e6bc
00000150: 88aa 78bd d1b9 083d 3e5f 86bd b4de 093e
00000160: 5852 2c3e 521d 923d fca4 6ebd aafa e1bd
00000170: 0585 0abe f2b0 eb3c 85bd 45be b515 0abe
00000180: b20b 193e 3426 92bd 6750 e93d 9479 f4bd
00000190: dea7 8a3d f203 143d 459f 2bbe 7730 0dbe
000001a0: f8cb 9a3d c7e1 5e3d 47b6 fb3d 47b0 c63c
000001b0: 88cd 2e3e 9b86 3ebe 76a2 0b3e e705 143d
000001c0: 2953 0dbe d284 053e 3ec8 103e 1c5a 5d3d
000001d0: 4684 d33d 5e67 eb3d 6e2d c7bd 2af1 f1bc
000001e0: 1d2b dbbc 8eb3 c73d 8854 efbd 3f7d 923d
000001f0: 5ec3 573e 1402 003c 4f68 4c3e 4eb9 32bd
00000200: 5e46 913d e333 6abd 8ad4 83bd 3018 523d
00000210: b3e5 153d 03c7 9bbc e49b 5cbd eddd 503e
00000220: 524c 9ebd b958 403d 156b 14be 470d b23c
00000230: 358c 4c3e d78e 41bd b4d9 e8bd 3fdb f1bd
00000240: 2b71 9b3c 6611 aebd f112 533e 18a2 093e
00000250: c003 3d3d ebf7 d3bd 932d b83d 71e5 fc3c
00000260: c249 0ebe 3e26 12be 58a4 6cbd 5efd 663d
00000270: 1f7d 143e a661 9dbd 5795 113e e4d8 52be
00000280: 5cdb cb3d cfea 3b3e 3be6 b7bd 1c81 46be
00000290: 162c cdbd c09c 31be 4e2f f23d cb5e 8abd
000002a0: dc7a d43d 5436 e7bd 1b55 eabc 9e84 0a3e
000002b0: beea 443e ef09 f3bd 654f dbbc 0ba2 0dbe
000002c0: 5764 d6bd 3971 1d3e 9234 cfbb e97f f3bd
000002d0: dc3e 113e 59aa 493b 9fb4 4dbe b4be 653e
000002e0: 8776 6abd 7038 083e d8af f03d e20c 143e
000002f0: 285a fbbd 8a0a 4d3e 1b05 2c3e 6523 443e
00000300: c321 14be ff04 67be d260 4abc 703b 0fbe
00000310: 4286 d33d d0dd 2cbc 9c85 25be 1676 7fbc
00000320: e02d b7bd a13d 36be 2129 0e3e 331f 3b3d
00000330: ef3d 8fbd 0e0f 553e abc8 463e b7b0 143d
00000340: cd62 aabc 4fb8 183e 6332 16bd 450a bd3c
00000350: 7dec a7bd dcdd a93c dd75 703c e678 d5bc
00000360: 903b 92bd 7b5a 4b3e d092 5a3d edad 283d
00000370: 9ec9 7a3d 4cc7 ffbc 6ec4 d83d 5e19 00be
00000380: b68d 323e 2c8d e03d a11c 9c3b fd13 f4bd
00000390: f4ef 893d b5a2 dabd f2a5 003d 7edc fcbc
000003a0: b65a a8bc da30 1fbd 920e 893d 9ea5 4ebd
000003b0: 8787 04be a642 28be 05c4 583e f2ad 37bc
000003c0: 2179 5b3a e24e 7c3d ba70 4f3e 5c81 b0bd
000003d0: 1a9a 0e3e cd9a e3bc 374b 66be 73f7 e3bd
000003e0: da2f d5bc 870e 2fbe 7ca9 8d3d 8fa8 333e
000003f0: b39e 463e dce1 c83d cda6 cebd 8822 103e
-0.05425685 -0.13795331 -0.1985299 -0.122218885 -0.018254332 -0.1790052 -0.19571988 -0.20201817
0.0031518068 0.15911399 0.12786688 0.18031222 0.15739419 -0.02551217 0.027564924 0.17039676
-0.18769045 0.20660867 0.13145475 0.028188048 -0.18361059 0.13894013 -0.06590796 -0.16067965
0.22122687 -0.037091527 -0.14817019 0.115887195 -0.18704294 -0.14903876 -0.002317082 -0.03278312
0.15041263 0.1323652 0.105680935 -0.025876189 0.059874296 0.12971729 0.16994244 0.1964235
0.18354878 0.12632489 -0.07666491 0.15261202 -0.14027539 -0.036040474 -0.063247755 0.19816728
0.006106831 -0.15051977 -0.15727837 0.14739655 0.17846763 0.10930608 -0.09727008 0.103480175
-0.10282666 -0.16570368 0.112866774 0.050166782 0.16781744 -0.03292241 0.0094098365 -0.058431026
0.06447685 0.18878031 -0.014663631 0.11501518 -0.08260537 -0.18996428 -0.043385554 -0.16993064
-0.0060346993 0.056868803 -0.02517747 -0.13583857 0.16345674 -0.017780252 -0.12552889 -0.13332003
0.16160627 -0.21077532 -0.0684352 -0.028157141 -0.060709506 0.033380333 -0.06561135 0.13463861
0.16828287 0.07134499 -0.05826281 -0.110341385 -0.13527305 0.028770898 -0.19310577 -0.13484843
0.14945868 -0.07136193 0.11392289 -0.11937252 0.067702994 0.036136575 -0.16759975 -0.13788019
0.07558435 0.054414537 0.12290626 0.024253977 0.17070591 -0.18606035 0.13636193 0.03613844
-0.13801254 0.13038948 0.14138886 0.054041013 0.103279635 0.11494325 -0.09725462 -0.029533941
-0.026753956 0.09751044 -0.11686045 0.07152795 0.2107062 0.007812995 0.19961666 -0.04363375
0.070934996 -0.05717839 -0.06437023 0.0512926 0.03659601 -0.019015795 -0.053859606 0.20397158
-0.07729401 0.046959613 -0.14493974 0.021734847 0.1997536 -0.047255363 -0.113696486 -0.11809396
0.018974861 -0.08499412 0.20612694 0.1344074 0.046146154 -0.10350021 0.089930676 0.030871125
-0.13895324 -0.142724 -0.057773918 0.056393974 0.14500855 -0.076846406 0.14217125 -0.2059055
0.09953949 0.18351291 -0.0897946 -0.19385189 -0.10018174 -0.17344952 0.11825429 -0.067563616
0.10374996 -0.11289659 -0.028605035 0.13527152 0.19230172 -0.11867129 -0.026771257 -0.13831346
-0.10468357 0.15375222 -0.0063234055 -0.11889631 0.14184135 0.00307717 -0.20088433 0.22436029
-0.057241943 0.13302779 0.117522895 0.1445804 -0.12273055 0.20023552 0.16798823 0.19154127
-0.14466004 -0.225605 -0.012352185 -0.13987517 0.10328342 -0.010550931 -0.16164249 -0.015592119
-0.08944297 -0.17796947 0.13882877 0.04568405 -0.06994235 0.20806524 0.19412486 0.03630134
-0.020799065 0.14914058 -0.036669146 0.023076186 -0.081994034 0.020735674 0.014676538 -0.026058625
-0.07140267 0.19858734 0.053362668 0.041181494 0.061227433 -0.031222962 0.10584341 -0.12509677
0.17436871 0.109644264 0.004764155 -0.11917875 0.067352206 -0.10675565 0.031408258 -0.030866858
-0.020551067 -0.038864948 0.06692232 -0.050450914 -0.12942325 -0.16431674 0.21168526 -0.011210905
0.00083722366 0.061598666 0.20257846 -0.08618423 0.13925973 -0.027783776 -0.2248963 -0.111311816
-0.026023794 -0.17095385 0.06917092 0.17544769 0.19396476 0.09808704 -0.100904085 0.14075673

transformer_enc.layers.0.self_attn.in_proj_bias f4 [96]
00000000: 7f96 ec3b 2fe4 0dbb b3f6 743c 6bda c5bb
00000010: bcdb 8fba 5d74 373c 8cb2 333c 1e64 e93b
00000020: 3a3d ae3a d013 92b8 ff82 623c a2d7 783c
00000030: 5da6 11bc 8c67 84bb 83a7 fbbb 6fca 863c
00000040: 3792 b3bb 704f 813b d3a0 b1bb 6647 043c
00000050: ab23 bbbb c89e 103a b7ef 4fbb 0ae2 2eba
00000060: 0f43 96bb 57a8 3cbc d8cf 25bc 2ab5 6e3b
00000070: a534 2abc c91e 14bc 92ce 833c d48b d039
00000080: 2a95 92b7 dcae b1b8 31d3 ebb8 4e58 a7b8
00000090: 5f71 4b38 af65 d836 4cc2 f438 8031 b236
000000a0: 6bd8 fb37 f04a a0b8 3df0 9838 c315 9038
000000b0: 21fc 9938 57df c4b8 a44e 29b8 af59 fa38
000000c0: 0972 0a39 913a 2a39 8ecd 4cb8 48d1 86b8
000000d0: 910a 5935 dbfe 5c39 b99d 61b9 981c a5b8
000000e0: f96b 3c38 a36e 7738 1742 22b7 1353 e738
000000f0: 8eeb 28b8 268c bcb8 943f 9c37 9878 5137
00000100: e50f 833b 2851 913c c300 593c 2e44 9dbc
00000110: d1ae 723a 748b c7bb 9e24 753b 18a5 abba
00000120: 3b5d 97bb 601c 453c 02ae 0fbb bd48 bbb9
00000130: f028 6f3b c1c3 b9ba e0f6 a23b fe7a 903c
00000140: a5a6 44bb abe0 4fba 9fae a33b 1b52 36bc
00000150: 22de 823a 4474 05bb 3c2e 82ba 7dd6 103c
00000160: 2f3b ec3b 22b9 31bb 4f96 8a3c e8e4 c43b
00000170: a3ab 173b df1f 193c 7d3a bfbb b033 423b
0.007220089 -0.00216509 0.014951396 -0.0060380003 -0.001097552 0.011197177 0.010967862 0.0071225306
0.0013293393 -6.965513e-05 0.013825177 0.01518813 -0.008889762 -0.004040664 -0.007679881 0.01645395
-0.0054800767 0.0039462373 -0.005420783 0.008073663 -0.005711039 0.00055168243 -0.0031728575 -0.00066712557
-0.0045856307 -0.011514745 -0.010120355 0.00364239 -0.010388528 -0.009040543 0.016089711 0.00039777032
-1.7474016e-05 -8.472588e-05 -0.00011245011 -7.9796286e-05 4.8504557e-05 6.449139e-06 0.00011671017 5.310576e-06
3.002231e-05 -7.643353e-05 7.292673e-05 6.8705085e-05 7.342571e-05 -9.3876086e-05 -4.036598e-05 0.00011937634
0.00013203187 0.00016234281 -4.8828828e-05 -6.4285996e-05 8.0854176e-07 0.00021075776 -0.00021516428 -7.873139e-05
4.492325e-05 5.8992428e-05 -9.67134e-06 0.00011030412 -4.02737e-05 -8.990643e-05 1.8626255e-05 1.2485449e-05
0.0039996975 0.017738894 0.0132448105 -0.01919755 0.0009257617 -0.006089622 0.0037405859 -0.0013095466
-0.0046192682 0.012030691 -0.0021923785 -0.00035721614 0.0036492907 -0.0014172719 0.0049732774 0.017636772
-0.0030006554 -0.00079299015 0.0049951817 -0.011127974 0.0009984414 -0.002036349 -0.0009931992 0.0088402005
0.0072092037 -0.0027118404 0.016917376 0.006008733 0.0023143075 0.009345978 -0.00583583 0.002963286

transformer_enc.layers.0.self_attn.out_proj.weight f4 [32, 32]
00000000: 4d5b b8bd c83c e9bd c695 cd3d 5941 3cbc
00000010: 772e 1bbd 683d cabd 7528 033e b4c0 68bc
00000020: 55af 61bd 9ad8 3e3c a137 e6bd d6a8 07bd
00000030: 07e1 823d 4348 53bd 391d 843d 3722 ed3d
00000040: cd63 393e 3f0b f53d df25 a33d 1d6b 8fbd
00000050: acab d4bc b659 223d 9f36 183e b0da c5bd
00000060: d1e2 903d b253 013e 3329 4cbd e3f7 b33d
00000070: 4fd7 093e 964b b1bd db58 b8bd 915d b8bc
00000080: 010b 1b3e 15f2 803c 80dd b2bd 4a6f 873d
00000090: 99ad 38be e2a9 dc3d 7dad c03c 54e9 89bd
000000a0: 856d 13be fdc5 44bc dc1d f3bd 3c47 acbd
000000b0: ef99 233e 8933 113e cacf 263d 9c8d c7bd
000000c0: 204c 183e 2109 b8bd f169 6dbb 0cea c7bd
000000d0: 46ca bdbd 5d58 bc3d 58e5 f9bd 8524 dbbc
000000e0: fedb 18be cb6c 0dbc 3bea ab3d b739 ac3d
000000f0: 21cc b43d b788 a0bd e635 c03b ea99 03be
00000100: ea56 37be e9f4 febd 7d76 fc37 977e e4bc
00000110: 3074 ccbb 9ece 01be 8b06 b43d f9c2 253d
00000120: dc70 133e f8ef 2cbe 32f8 ca3c 7a51 3cbe
00000130: 3116 153e e563 dc3d 018a 94bd cf26 aebd
00000140: d2ad d63d 1327 c43d 3822 44bd 33f0 56bd
00000150: aec8 693d dc32 b9bd d593 773d b5c6 1bbd
00000160: 762d b13d 2d0f dd3d 445c 45bd 5eb5 093e
00000170: 7c6f 2e3a 91bc dfbd 2e91 8d3d 926e 273c
00000180: eb4d 20be 522b bc3d e361 463e 8423 11be
00000190: f07a e1bd b3c4 0ebd 8917 8f3d 6c22 133e
000001a0: bf75 59bc 9585 e63d c862 c53d 9ae8 eabd
000001b0: 60f8 4abd 87fa d33d 1e4a c2bd 87c3 033d
000001c0: b15e b5bc 2b19 25be 9d30 423e 541d 2b3e
000001d0: cee5 14be f341 1dbe 476d 17be 9cd3 453e
000001e0: dbcc f2bd 075c d3bc dae7 ed3d c655 493e
000001f0: 0dd9 0cbe 7963 87bd 3560 ef3d 7125 9e3d
00000200: eb23 133d 444b 1d3e d223 ecbd e38e ecbc
00000210: 6e4e b23d 19ab c13d a4e9 173e 78e4 a23d
00000220: 9dd7 733d a3ef 4a3b 19d3 2e3e aa8e 78bd
00000230: 001f fdbd 62db cf3d c0f8 003e 56f7 aebd
00000240: 604e 1e3e cf36 143e 2aaf 1f3d 287e 073d
00000250: 7817 81bd 427b 1c3e df14 f73d 8d01 f33c
00000260: 74e3 8a3d 27fd 34be b81f d23d 6a65 b2bd
00000270: f26f c43d 6b64 a93c 72e5 13be b301 c8bb
00000280: 79a9 10be a6c4 2ebe 00f2 fe3d 2c91 06be
00000290: c354 f2bd 3b2a 3abe 93b2 c43d 72c3 22be
000002a0: fd4e c13d 3150 013e 59c9 b4bd d00a b1bd
000002b0: 0295 293d 0eb6 98bc 4711 b7bc a423 033e
000002c0: f301 c13c de50 dfbc 0a22 d43d b254 20be
000002d0: 2409 0ebe 7809 c6bd 784d 273e 918f 933d
000002e0: 1e17 123d 766d 07be 65d9 133e 70d1 a0bd
000002f0: e81c 1fbe adb8 353e 93b5 84bc d89e b63d
00000300: 79b5 01be 7e2d 1a3e a601 10be b318 3cbd
00000310: f6dc 1dbe b375 043e 6296 603c f959 363e
00000320: efbc 87bd b769 49bd f0f8 503d 8e36 bdbc
00000330: 9790 0cbe 8fd1 e23d 6c22 1fbd 9e2f dfbd
00000340: 7d0b c63d c188 1dbe b1af 5cbc 6cec 953c
00000350: 0ced c33d 4eff 843d 4472 acbd ffa6 05bd
00000360: bd34 4abd f0ec a43c a650 abbd 8e36 eb3d
00000370: fab7 2f3d e42f 633d a3c5 243e cbba 3cbe
00000380: f5c0 9a3d e90d 023e b4b4 303e 8d00 c7bd
00000390: c2b3 27bd fdad c0bd 889f ecbd 283a babd
000003a0: 94bb b1bc 80be b7bd 3319 ac3d da60 dbbd
000003b0: 6d2d 1bbe 8905 163c 3ea4 043e 91f3 26bd
000003c0: d2f2 853d 7a8c 3fbd afb4 acbc c35e b43c
000003d0: cd80 0cbd bc1b b33c 40c4 733d 9f3a 0cbe
000003e0: 3193 cfbd 3f03 a5bd 7523 433b 31c7 da3d
000003f0: 4ac7 3d3d b8f7 083e 5742 c4bd 74bc fdbd
-0.09001789 -0.11388546 0.10038333 -0.0114901895 -0.03788611 -0.098749936 0.12808402 -0.0142061
-0.05509885 0.0116483215 -0.11241079 -0.03312 0.06390577 -0.051582586 0.06450886 0.115787916
0.18104477 0.11965036 0.07966208 -0.07002852 -0.025960766 0.039636336 0.14864586 -0.09660852
0.07074512 0.12629583 -0.049843978 0.08787515 0.1346104 -0.08656995 -0.09001323 -0.022505553
0.15140916 0.015740434 -0.08733654 0.066130236 -0.18034972 0.1077459 0.023520226 -0.06733957
-0.14397247 -0.012010095 -0.118709296 -0.084120244 0.1597669 0.14179815 0.040725507 -0.09743807
0.1487279 -0.08986116 -0.0036226476 -0.09761438 -0.09267096 0.091965415 -0.12201947 -0.026750812
-0.1492767 -0.008631895 0.08394285 0.08409446 0.08827997 -0.07838576 0.0058658 -0.12851682
-0.17904249 -0.12449057 3.0095916e-05 -0.027892394 -0.0062394366 -0.12676474 0.087903105 0.040469144
0.14398521 -0.16888416 0.024776552 -0.18390456 0.14559247 0.10761241 -0.07252885 -0.08503496
0.10482372 0.09577765 -0.047884196 -0.052475166 0.05707615 -0.09042904 0.060443718 -0.0380313
0.08651249 0.1079391 -0.048183694 0.13448092 0.00066541857 -0.10924638 0.069124565 0.010219233
-0.15654723 0.0918795 0.19373278 -0.14173704 -0.110097766 -0.034855556 0.06986911 0.143686
-0.013272702 0.112559475 0.09637982 -0.114701465 -0.049553275 0.10350519 -0.09486793 0.03216889
-0.022139879 -0.16122882 0.18963857 0.16710407 -0.14540789 -0.15357189 -0.1478778 0.19319004
-0.11855479 -0.025800718 0.11616488 0.19661626 -0.13754673 -0.0661077 0.11688272 0.07721985
0.035922926 0.15360743 -0.1153027 -0.028876727 0.087063655 0.094564624 0.1483522 0.07953733
0.059531797 0.0030965589 0.17072715 -0.06068293 -0.123594284 0.10149266 0.1259489 -0.08543269
0.15459585 0.14474033 0.03898541 0.033079296 -0.063033044 0.15281394 0.12064528 0.029663825
0.067816645 -0.17674695 0.10259956 -0.087107494 0.095916644 0.020677766 -0.14442995 -0.006103718
-0.14127149 -0.17067203 0.124485016 -0.13141316 -0.11832573 -0.18180172 0.09604373 -0.15894869
0.09438894 0.12628247 -0.088274665 -0.086446404 0.04140187 -0.018641498 -0.022347106 0.12806565
0.0235605 -0.02726024 0.10358055 -0.15657309 -0.13870674 -0.09669775 0.16338146 0.072051175
0.035666578 -0.1322535 0.14438398 -0.07852447 -0.1553837 0.1774623 -0.016199863 0.08917016
-0.12666883 0.15056416 -0.14063129 -0.045921993 -0.15416321 0.12935524 0.013707729 0.1780776
-0.06627833 -0.049173083 0.051018655 -0.023097303 -0.13727032 0.110751264 -0.038851187 -0.10897754
0.0967016 -0.15384199 -0.0134696225 0.018301211 0.095666975 0.06494008 -0.08420232 -0.032629963
-0.0493667 0.020132512 -0.08364992 0.11485015 0.042900063 0.055465594 0.16091017 -0.18430631
0.07556335 0.12700619 0.17256433 -0.09716902 -0.040942915 -0.09408186 -0.11553866 -0.09093124
-0.02169589 -0.08971882 0.08403244 -0.10711832 -0.15154047 0.009156593 0.12953278 -0.040759627
0.06540455 -0.04676483 -0.02108225 0.022017842 -0.03430252 0.02186381 0.05951333 -0.13694237
-0.101354964 -0.0805726 0.0029775773 0.10682524 0.046332635 0.13375747 -0.09582966 -0.1238946
