PhysFormer_final.pth (torch, 609906 bytes, 48 tensors)

feat_ext.stem.0.weight f4 [16, 3, 1, 5, 5]
00000000: 6dbb 343c e64a 143d 3875 ac3d 9105 57bd
00000010: 44cc abbd 2df9 0bbd 8bcd df3d 602f b1bd
00000020: b499 e03d 5e1d a3bd a750 b5bd de19 d03c
00000030: a8bf b63c eaf7 3cbc 031c d1bd 1eaa 813d
00000040: cc2b 03bd b441 cb3d a958 af3d 41b9 b33d
00000050: 4644 cb3d 4ec9 113d 0343 acbc a1f1 8d3d
00000060: 568a 573d cb7f 963c 2ce7 a73d 1cf9 9d3d
00000070: c679 1abd 5bf8 553d 64f1 c03c df83 e13d
00000080: 0ea5 de3d 4685 623d b340 9dbd e248 bbbb
00000090: de76 63bd 1ae5 a9bd 6636 ecbc b70f 803d
000000a0: b4b2 a4bd e441 c83d 8d77 093c e06a 89bc
000000b0: bbf9 a93b 2aeb 7e3d bc37 8d3d 003f cdbd
000000c0: 547d d9bd 720f 12bd fb07 a33c 4b2a bb3b
000000d0: b9a5 ddbd 93f8 7dbd c5e1 26bd b4bc e1bc
000000e0: c4a9 553c 387b b23d 00a3 f2bc 7109 a93c
000000f0: 86ae d2bd 0f0d 49bd f523 93bd 815b 15bd
00000100: 210e a33c 9efc 303d 83d5 efbd 24fd 223d
00000110: f7be 993b ee6f e7bd 4fe2 adbd 807c c6bd
00000120: 3bf9 9ebd 2eed f7bb 3c97 be3d 7ebe ab3d
00000130: c749 0ebd ffd7 603d 62dd 893c 5a16 a43d
00000140: a7b6 54bd 829d 8d3d befa 3d3d 637b 9a3d
00000150: 7de2 7b3d 64ec b13d 1f93 25bb ffea 35bd
00000160: 0392 a3bd 30bc a93d ab29 223d 953c ea3d
00000170: ade5 febb ecf1 a1bb b2d8 803d 03df 0dbd
00000180: 026a 2a3c 1146 0e3d 5fa0 d43d 7f7a a33c
00000190: 437d acbd c63d abbd 6268 b6bd 53ba 20bc
000001a0: 7b0b 6f3d 4927 28bd e986 b6bd ddbd 8ebd
000001b0: 54f0 0fbd 6ead c7bc 299e 9b3d a6ee a53d
000001c0: 549f 633c 23b7 253c 492d 523d cfa0 903c
000001d0: cc3b 3b3d ad21 4a3d 36b0 823d 5e8f b73c
000001e0: 2f26 b1bd 6278 95bd 3cab 35bd bbe3 ed3d
000001f0: e03f 313c 8e7c 513d e82d ac3c d871 81bd
00000200: 9b88 b53c f77c 69bd 2914 ab3c 7e5e ad3d
00000210: e590 97bd 8a58 6f3d 5959 c5bd 51e6 cbbd
00000220: f549 293b 38f0 293d 2c52 a9bd 3633 f23d
00000230: f372 d5bd 0329 003d adfb 0ebc 5f6c 173d
00000240: 6077 e0bd 3c97 7b3d 7379 e63d cba1 d4bd
00000250: add0 833d 0f48 383d d315 c53d e96c 3c3b
00000260: f2e0 913d b14b bd3d fdb5 8fbd f0a3 57bd
00000270: b16e 6c3d c4bc 33bd e7a2 583d 2b40 c43d
00000280: 8256 6b3d 8f01 983d c485 a23d 867c c1bd
00000290: 4a4e ae3d 300d debc 135a 623d 13a3 b6bd
000002a0: 7723 c8bc cfb8 b63d 1f4e 393d 7e5c 3ebd
000002b0: 9b2e 613d a7ef 9d3d 3994 a5bb 2e19 71bd
000002c0: 148d 17bd 69a1 0ebc 386a a83d 0983 bd3d
000002d0: 4203 a4bd a1f7 373d cd49 13bd 5c3c 803d
000002e0: 7546 b3bd fcb0 38bd a2b5 863d 836a b23d
000002f0: 0520 09bb c3ec d33d ebbb 9ebd 8a8c 11bd
00000300: 8854 72bd 5604 cb3d 0a4a 1fbd 67f2 d43d
00000310: 0740 1abc e373 8d3c 7563 a33c 00d3 a1bd
00000320: a401 34bd b28e 313a b1f3 c7bd 3649 db3d
00000330: f795 ccbd 1980 2fbd 05be b0bd 3d7e c0bd
00000340: dd91 d73d fdfe c2bc d284 553d a27c 95bd
00000350: b40e b0bd 1f08 73bd db15 883c e05a 843d
00000360: ad51 953d ca93 c53d 9c65 d33d e2cc b13c
00000370: 7294 603d 0051 9cbd 7c82 823d 6055 a63d
00000380: 1579 2c3c a393 95bd 1af5 f0bd 2015 57bd
00000390: ddb0 283d 2179 b93d fc92 e8bc 6fc5 9f3d
000003a0: 9553 d73d adee 063d b228 b5bd 524d 503c
000003b0: b72c 3ebc 8934 6fbd bfc8 a4bd c608 8c3d
000003c0: 8453 81bb 8b18 8a3d 6d9a dcbc 0d39 243c
000003d0: f12c 713d 215b e13d bb36 2b3d e52b e6bb
000003e0: a103 7e3d 6f08 2bbd bbc7 17bc dfe6 6dbc
000003f0: 4d7a 813d 5755 d33b 78fd 95bd dd77 4a3d
0.011031014 0.03620424 0.08420795 -0.052495543 -0.0838857 -0.03417318 0.10927876 -0.08651614
0.109668165 -0.07964586 -0.08853274 0.02540296 0.022308186 -0.011533717 -0.10210421 0.063312754
-0.03202419 0.09924641 0.085618325 0.08775569 0.099251315 0.03559237 -0.021028047 0.06930853
0.05262216 0.018371483 0.081983894 0.077135295 -0.03771379 0.052238803 0.023552604 0.110114805
0.108713254 0.05530288 -0.07678356 -0.0057154754 -0.055533282 -0.08295651 -0.028834533 0.06252997
-0.080418974 0.09778193 0.0083903195 -0.016774595 0.005187241 0.06223599 0.06895396 -0.10021782
-0.106196076 -0.03565926 0.019901266 0.005711829 -0.10822625 -0.062004637 -0.040742654 -0.027555801
0.013040964 0.08714908 -0.02961874 0.020634385 -0.10287194 -0.04908472 -0.07184593 -0.036464218
0.019904198 0.043209665 -0.11710646 0.039792195 0.0046919542 -0.11300646 -0.084904306 -0.09691715
-0.07762381 -0.007566116 0.093061894 0.08385943 -0.03473833 0.05489349 0.016829196 0.08012076
-0.051932003 0.06914808 0.046381705 0.075430654 0.061495293 0.08687666 -0.0025264693 -0.044413563
-0.07986834 0.08287847 0.03959052 0.11437336 -0.0077788443 -0.0049421694 0.06291331 -0.03463651
0.010401251 0.03473479 0.10382151 0.019955872 -0.08422329 -0.08361392 -0.08906628 -0.009810048
0.058360558 -0.04105309 -0.08912451 -0.06969807 -0.035141304 -0.02437469 0.07598526 0.08102159
0.013892967 0.010114464 0.05131272 0.017654805 0.045711324 0.049348522 0.06381266 0.02240723
-0.08649861 -0.07298352 -0.044352755 0.11615702 0.010818452 0.051144175 0.021017984 -0.06320542
0.022159865 -0.05700394 0.020883637 0.084652886 -0.07400683 0.058434047 -0.09636182 -0.09956039
0.0025831435 0.041488856 -0.08267626 0.11826174 -0.104223154 0.03128911 -0.008726996 0.036968585
-0.10960269 0.061423525 0.11253633 -0.10382422 0.06436286 0.044990595 0.09623303 0.002875144
0.07122983 0.092429526 -0.070171334 -0.052646577 0.05772275 -0.043881193 0.05288973 0.095825516
0.057455547 0.07422172 0.0793567 -0.09447579 0.08511026 -0.027105898 0.055261683 -0.08917823
-0.024430973 0.08921968 0.045240518 -0.046474926 0.054976087 0.07711726 -0.00505307 -0.058861904
-0.036999777 -0.008705475 0.082233846 0.092535086 -0.08008434 0.04491389 -0.035959054 0.06261513
-0.08753673 -0.04509066 0.065776125 0.08711722 -0.0020923626 0.10347893 -0.07750686 -0.03553442
-0.059162647 0.099129364 -0.03888897 0.10397797 -0.009414679 0.017267173 0.019944886 -0.07901573
-0.043946877 0.00067732774 -0.09763277 0.10707323 -0.09989541 -0.042846773 -0.08629993 -0.09399078
0.10525868 -0.023803229 0.05212862 -0.072991624 -0.085965544 -0.059333917 0.016611984 0.064626455
0.07290969 0.09647329 0.10322115 0.021704141 0.05482907 -0.07632637 0.06372544 0.08121753
0.010526915 -0.0730355 -0.117654994 -0.05251038 0.041184295 0.09056307 -0.0283904 0.07801329
0.10513989 0.032942463 -0.08845653 0.012713747 -0.011607341 -0.05839971 -0.08046102 0.06837611
-0.0039467234 0.067429624 -0.026929105 0.010023368 0.05888075 0.110037096 0.041800242 -0.0070242756
0.06201518 -0.04175609 -0.009263928 -0.014520376 0.06322155 0.0064493823 -0.07323736 0.049430717

feat_ext.stem.0.bias f4 [16]
00000000: 1e71 9d3c e176 bb3d bebe 8a3d 6502 d53d
00000010: c0df c43d 1bb4 1cbc 403d c83d a042 d53c
00000020: b8ca cfbd a207 d4bd 1710 7a3c b7d0 583d
00000030: b3a4 c3bd ef03 c03d cba2 be3d 69eb 89bb
0.019218978 0.09153534 0.067746624 0.10400847 0.096129894 -0.009564425 0.097773075 0.026032746
-0.101460874 -0.10353018 0.015262625 0.05293342 -0.09552898 0.0937575 0.09308394 -0.0042089713

feat_ext.stem.1.weight f4 [16]
00000000: 351e 7d3f f6e2 7e3f bcb7 7f3f 841f 7c3f
00000010: 3be9 7c3f 9db1 803f 4fa0 803f 1276 7f3f
00000020: 99ff 7f3f da76 803f d561 803f a271 7d3f
00000030: 2ccb 803f 43d0 7c3f 8f91 7d3f d4df 7c3f
0.9887422 0.99565065 0.9988973 0.9848559 0.9879338 1.0054203 1.0048922 0.99789536
0.99999386 1.0036271 1.0029856 0.99001515 1.0062003 0.9875528 0.9905023 0.98779035

feat_ext.stem.1.bias f4 [16]
00000000: 4de8 37ba c9d4 453b c78f e63b 684f a33a
00000010: 63a3 59bb cebb ed3b 5e17 163c 16b8 453b
00000020: 7a00 2f3c 44e6 d13b b4ef ff3b 551c 79bb
00000030: e73e 983b ba08 05bc 4276 25bc ecc2 1abc
-0.00070155115 0.0030186644 0.0070361826 0.0012459578 -0.0033208958 0.007255054 0.009160845 0.0030169538
0.010681266 0.0064056236 0.0078105573 -0.0038011272 0.0046461704 -0.008119756 -0.010098996 -0.009445887

feat_ext.stem.1.running_mean f4 [16]
00000000: 27da 3abe 9626 52be 8d91 7dbe 54f0 4a3c
00000010: 1b55 f03d ca34 6ebe 4b2c 9d3e ca11 46be
00000020: 1f9b d2bc 22cc 533d baf9 cf3d 39fd 2ebd
00000030: 00f3 f1bc 479c db3d d10a 6bbe 3e81 21bd
-0.18247281 -0.20522532 -0.24762554 0.0123864 0.117349826 -0.23262325 0.30697855 -0.19342723
-0.025708733 0.051708348 0.101550534 -0.04272196 -0.029534817 0.10723167 -0.22953345 -0.039429896

feat_ext.stem.1.running_var f4 [16]
00000000: 78ae b13c fd0f 893d 6dc7 e63d c2b8 953d
00000010: d288 a43c 6598 a83e 53a8 d03c 694b 3e3e
00000020: 5031 843c 021e 4c3c d06d 6b3d 118a 0c3d
00000030: ad38 153d c22d 343d d44a 833e f5a6 023d
0.021689638 0.06692503 0.11268506 0.073106304 0.020084772 0.32928768 0.025470888 0.18583454
0.016136795 0.012458326 0.057477772 0.034311358 0.036431003 0.04398895 0.25643027 0.031897504

feat_ext.stem.4.weight f4 [32, 16, 3, 3, 3]
00000000: 7f2e b03c e444 1cbd 0f3c 03bd d27d 3e3c
00000010: 71c1 95bc 8d7f 04bd 12a9 103d a696 3c3d
00000020: 1419 9cbc 1e44 fb3a 22c8 a93b ff82 24bd
00000030: 178a dabc ce6b 49bc fb2c 543c ffd3 0e3c
00000040: af9c c43c e5fb 0f3d 5974 2b3d e27e 34bd
00000050: 3016 043d 2e26 89bc 6b43 053d 434c d73c
00000060: 486f febc dee4 363d ae48 553c 8969 0a3d
00000070: 0d31 47bd 592e f03c a24b f7bc 20ac e3ba
00000080: 1ec3 3abd 962e 0e3c f276 ccbc 0aa5 3c3b
00000090: 5bab 373d 7075 b2bb a2fc 983b a4c1 32bd
000000a0: 3266 1bbd 8267 07bd 1a71 c13c 0152 fabc
000000b0: 493c f83c 96e7 373c 75b7 db3c 22b9 c63c
000000c0: 17cb 56bc e14f 39bd 8771 54bd edee ab3c
000000d0: 7979 b73c c924 28bb 4115 fdb9 9ad9 26bd
000000e0: 110d 8c3b eb9c f5bc dfb4 16bd 0d16 25bd
000000f0: e2b6 1abc dfab 043d 6d10 133d 788e c83c
00000100: 961f 203d 60b6 2f3b 8d42 a2bb 6180 27bd
00000110: 8014 61bc c342 15bd 6736 b9bc 6996 3e3c
00000120: f6f7 8c3c dfe1 3ebc da3d 33bd 69ea 0b3c
00000130: 04fb 40bd 2ef7 a5bc 27ff 1bbd 541e 21bd
00000140: 990f 2e3d 02a2 5dbd 632e 1c3c cabc 63bd
00000150: 1232 81bc f7af 20bb 67de 18bd fbee bdbc
00000160: 54e2 173d 4474 6dbc ed3d a9bb 63df 4dbd
00000170: e070 84bc d397 bb3c e9b4 8a3c 73c2 f2bc
00000180: 2be0 2ebd 9d2d cd3c 27f2 22bd 5d03 113d
00000190: 01c6 123d e4d0 983b 359e f3bc 8e27 bf3c
000001a0: 1ba4 92bc 78b1 1dbd f8f6 fd3c cf51 933c
000001b0: f26f 03bc c938 bfbc 36d1 35bd e5f6 1cbd
000001c0: c696 c13c f28c 4d3c d2b3 aabb ec15 433c
000001d0: a4a9 0c3d b6c0 6a3c 3c35 953b 4b69 a13c
000001e0: 69ee 563d be06 2fbd c2fd 233d 6efb 0d3c
000001f0: e0d3 463c 43a3 be3c c3ef f4bc 852e 043d
00000200: 624c febb 94c0 173d b8c1 0e3d cc59 51bc
00000210: eba9 9ebc 98e6 90bc 5e74 4abd ee60 08bd
00000220: 6187 363c 89fd 5f3b 48f9 d6bc 607a 2bbd
00000230: 4ace 373c 2ac7 0d3d 3ec1 c7bc 431d 2fbd
00000240: a547 6abb bb44 a5bc 23b2 7b3b 1bc8 bebc
00000250: 40c1 9cbc 8dfa 9ebc db90 bf3c 76aa bb3c
00000260: 0b7c ff3c 72e2 213d f6ca bc3c e9f1 253b
00000270: 10f3 283c 5700 56bc 49ea b73c 0d1d 9b3c
00000280: 993f d93c 243c 40bd a5b4 4dbd 503e d8bc
00000290: ed30 16bd 2222 09bc 69c5 1bbc 4907 663c
000002a0: 5fa8 a1ba c670 36bd 1106 88bd 8ee4 0ebd
000002b0: fcac 3abd d497 e93b 21a4 d2bc babb 193d
000002c0: 56ff 3ebc 9407 d43c 9837 7dbc 17ac f13c
000002d0: ab8c 23bd a4fb 0dbc 72f9 213b 732f f9bc
000002e0: bed1 13bd cd21 213d 8bd7 313d e99d 593c
000002f0: b192 f03b 1ef9 54bd f32d 973b 005e 143d
00000300: beec 27bd 0e5b 40bc 20ba 123b d36e f5bc
00000310: b6ee 793c 0b0a 4bbd 66c5 c9bc 6d68 20bd
00000320: 1fa6 14bd ae5e 3fbd 0a3e 26bc 03a9 cc3b
00000330: 1515 b13c 8525 31bd 53cd 0bba d1fc 283d
00000340: 368b 923c 515a e33a 6c0f ecbb 1807 1f3d
00000350: b425 99bc 8a2d 89bc b0cc 55bd d9e7 fe3c
00000360: b326 4fbc e705 e83b 9e24 9abc df13 dcbc
00000370: a153 1b3c 3f94 edbc b393 96bc 1c42 9cbb
00000380: e3ed e13c 4166 98bc 70af 1d3d 0eab 1ebd
00000390: ec5f dd3c 1561 0fbd fafa ca3c 59e0 533b
000003a0: c5ce 66bb 0999 db3c b124 9f3c 5fdc 163b
000003b0: f209 eb3b 30da b53c bfba 4abd d57e 3dbc
000003c0: 60a8 913c ce11 4dbc b600 bf3b b10b 8dbc
000003d0: dac0 babc 8214 a93c 6f90 00bd 57e6 b93c
000003e0: f0e7 dfbc 8f51 573c 5c2f 1ebd 41d3 913c
000003f0: 70f9 123d 0ba0 c8bc 060d eb3c 436e 1f3d
0.021506546 -0.038151637 -0.0320397 0.011626678 -0.018280717 -0.032348204 0.035317488 0.046042107
-0.019054927 0.0019170081 0.0051813284 -0.04016399 -0.026677174 -0.012293769 0.012950177 0.008717536
0.024000494 0.035152335 0.041859005 -0.044066317 0.032247722 -0.016741838 0.032534998 0.026281482
-0.031058922 0.04465186 0.0130178165 0.033792052 -0.048630763 0.029318975 -0.030187432 -0.0017370023
-0.045596235 0.008678099 -0.024959061 0.0028784894 0.04484115 -0.0054461285 0.004668788 -0.0436417
-0.037939258 -0.033057697 0.023613501 -0.03055668 0.030302184 0.011224648 0.026820878 0.0242582
-0.013109944 -0.045242194 -0.05186608 0.020987952 0.02239679 -0.0025656691 -0.00048271756 -0.040734865
0.0042740186 -0.02998205 -0.036793586 -0.040304232 -0.009443017 0.03239047 0.035904337 0.024481997
0.039092623 0.0026811585 -0.004951781 -0.040893916 -0.013737798 -0.036440622 -0.022608949 0.01163254
0.01720808 -0.011650532 -0.043760158 0.008539774 -0.047114387 -0.020259466 -0.03808513 -0.039335564
0.042495344 -0.05410958 0.009532544 -0.055599965 -0.015770946 -0.0024518946 -0.037321474 -0.023185244
0.037081078 -0.014493052 -0.005164853 -0.050261866 -0.016167104 0.022899544 0.016931968 -0.029633736
-0.042694252 0.025046164 -0.039781716 0.035403598 0.035833362 0.0046635736 -0.029738525 0.02333429
-0.017900517 -0.038499326 0.031001553 0.017983345 -0.008022295 -0.023342507 -0.044388972 -0.038321394
0.023631465 0.012545811 -0.0052094245 0.011907082 0.03434147 0.014328172 0.004553465 0.019703528
0.05247346 -0.04273104 0.040036924 0.008665903 0.012135476 0.023271209 -0.029899484 0.032270927
-0.0077605704 0.03704889 0.034852713 -0.012777757 -0.019368133 -0.01768808 -0.049427383 -0.033295564
0.011140675 0.0034178218 -0.026241913 -0.041864753 0.011218617 0.034613766 -0.024384137 -0.042752516
-0.003574827 -0.020174375 0.0038405738 -0.023288777 -0.019135118 -0.019406581 0.023384502 0.02290843
0.031187078 0.039522596 0.023045998 0.0025321192 0.010311857 -0.013061604 0.022450583 0.01893475
0.026519584 -0.046932355 -0.050221104 -0.0263969 -0.036667753 -0.008369954 -0.0095075155 0.014039823
-0.0012333504 -0.044541143 -0.06641782 -0.034885935 -0.045575127 0.007128695 -0.025713028 0.037532546
-0.0116575565 0.02588252 -0.015455149 0.029501004 -0.039929073 -0.008665953 0.0024715331 -0.030418133
-0.036088698 0.039338876 0.04341845 0.013282278 0.0073417057 -0.05199539 0.004613632 0.036222458
-0.04099726 -0.011740459 0.0022388771 -0.029960072 0.015254667 -0.049570125 -0.02463026 -0.03916209
-0.036291238 -0.046721153 -0.010146627 0.0062457337 0.021616498 -0.043248672 -0.0005333025 0.04125673
0.017888647 0.0017345642 -0.007203987 0.038825125 -0.018694736 -0.016745348 -0.05219716 0.031116413
-0.012643504 0.0070807817 -0.018816289 -0.026864944 0.009480388 -0.029001353 -0.018380975 -0.004768623
0.027579254 -0.018603446 0.03849739 -0.03873735 0.027023278 -0.035004694 0.024777878 0.0032329767
-0.003521846 0.026806371 0.019426676 0.0023019535 0.0071728164 0.022198766 -0.0494945 -0.011565884
0.017780483 -0.012516452 0.005828942 -0.017217489 -0.022797037 0.020639662 -0.031387743 0.022692842
-0.027332276 0.013142004 -0.038619384 0.017800929 0.035882413 -0.024490377 0.028692733 0.038923513

feat_ext.stem.4.bias f4 [32]
00000000: ea8e dabc d259 ce3c 2afa c6bc e126 9c3c
00000010: 8f17 263d 54d0 6d3c 4637 aebc f50e a8bc
00000020: 29ae 9bbc fb8b 57bc 4eab 83bc becc eebc
00000030: 0a1f bdbc 0b80 b1bc 2d85 bf3c 8b84 363d
00000040: 6f6a 09bb 22d6 70bc dd89 95b9 da1d ea3c
00000050: 1ae6 513c 6a1b 203d 8c6f 0abd cd84 cabc
00000060: e897 12bd 4ab9 bc3c 98c5 253d a153 063d
00000070: ea54 173d 43ee 213d 3f88 fe3c f375 3fbc
-0.026679475 0.025189314 -0.02428921 0.019061508 0.04054981 0.014515001 -0.02126659 -0.020514945
-0.019003944 -0.013155933 -0.016072895 -0.029150363 -0.02308609 -0.021667501 0.023378933 0.044559997
-0.002096798 -0.014699491 -0.0002852221 0.028578687 0.012811208 0.039088644 -0.033797786 -0.024721527
-0.0357894 0.023037571 0.040471643 0.0327946 0.036946215 0.039533865 0.031070827 -0.011685836

feat_ext.stem.5.weight f4 [32]
00000000: b7f7 7f3f dc0d 7e3f c42b 803f 5603 803f
00000010: 1341 7f3f 0823 7f3f a9c5 7b3f 3f04 803f
00000020: fd3b 7d3f b97b 7e3f fb5f 7d3f 374e 7c3f
00000030: cf6d 7d3f 2329 803f 62bc 803f c350 7d3f
00000040: 3bf4 7f3f 97de 803f 13ec 803f cf17 813f
00000050: 82fb 7e3f ce17 803f 645b 7d3f 35f6 7f3f
00000060: 02b4 7d3f e905 7d3f c58d 7e3f c789 7d3f
00000070: 8653 813f 4e10 803f 7c2b 813f 3d4f 7f3f
0.9998736 0.992399 1.0013356 1.0001018 0.9970867 0.9966283 0.9834848 1.0001296
0.9891966 0.99407536 0.9897458 0.98556846 0.9899568 1.0012554 1.005749 0.9895136
0.9998204 1.0067929 1.0072044 1.0085391 0.9960252 1.0007265 0.98967576 0.9998506
0.99102795 0.98837143 0.99435073 0.99038357 1.0103614 1.0004976 1.0091395 0.99730283

feat_ext.stem.5.bias f4 [32]
00000000: 0799 b239 b27e 303b a5b7 ac3b 1c64 e33b
00000010: 7dba b9bb 7039 ec3a 5938 84bc a23d 833b
00000020: 65fb f0bb 4d7f e139 d23e e9bb 1a05 ffbb
00000030: 03d2 12bb 64bd 293b ca78 623b 27e8 23bc
00000040: 5f03 f7b9 9fa5 2e3c 2508 0c3c a3a1 383c
00000050: 3caf 143b 1aaf 393b ea11 52bc afda 42b9
00000060: 875e 16bc 5f99 a1ba adf0 2cbb ccb7 eabb
00000070: d3c0 813b 2ed4 3fbb 71c2 5b3c 72b9 763a
0.0003406482 0.0026930985 0.0052709156 0.006939424 -0.005667983 0.0018022489 -0.01614015 0.00400515
-0.0073541873 0.0004301019 -0.0071180845 -0.0077825906 -0.0022403009 0.002590024 0.003455686 -0.01000408
-0.00047114023 0.010659604 0.008546864 0.011269006 0.0022687456 0.0028333128 -0.012821654 -0.00018582748
-0.0091778105 -0.0012329033 -0.002638857 -0.0071630236 0.003959754 -0.0029270756 0.013413058 0.0009411789

feat_ext.stem.5.running_mean f4 [32]
00000000: 2ebd 2cbf 7e73 59be cfcb f7be 1e35 0a3f
00000010: bb8e 49bf f1be 823e 4739 17be 9a8b 783e
00000020: 9fbe 833e d210 7dbf 985a e83e 47fa 89be
00000030: bee9 78bf 1f3a c7be 455c 93be 5cc9 40bd
00000040: ab6f 893e 9696 64bf 2d43 14bf 9beb eb3d
00000050: 38eb 53bf 5adf cbbe 402b c63e f3b2 7cbd
00000060: 08f3 be3e 5de4 36bf bc22 cebe 7c70 3a3f
00000070: fe3c 36bf 79d1 15bf ef32 f43e 0957 1e3f
-0.67476165 -0.21235463 -0.4839768 0.539873 -0.78733414 0.25536302 -0.14767943 0.24272004
0.2573137 -0.9885379 0.45381618 -0.2694876 -0.9723166 -0.3891153 -0.28781334 -0.04706703
0.26843008 -0.89292276 -0.57915 0.115195476 -0.8278079 -0.3981884 0.38704872 -0.061694097
0.37294793 -0.71442205 -0.40260875 0.7282789 -0.71186817 -0.58522755 0.4769511 0.61851555

feat_ext.stem.5.running_var f4 [32]
00000000: dfa1 d93e 842e c53e 5294 ad3d cd73 ad3e
00000010: 5d85 2a3f ba65 693f 127c 9d3f da18 9c3e
00000020: baf7 243e 7c18 d03f 9c6c 183f 79d7 563f
00000030: e012 383f 88ed eb3d 3bb8 8d3d 6c58 9b3e
00000040: 9de2 893f 7296 833e d26b 043e f837 ad3e
00000050: ddcf ef3e bcee 863e 731e 3f3f 4bc7 f73e
00000060: dfb5 1d3f 9e94 ff3e cf20 a73e dd69 c13e
00000070: 147a 1d3e 992e a03e 526b f23d 1ca9 753e
0.4250631 0.3851205 0.084755555 0.3387741 0.66609746 0.9117085 1.2303488 0.3048771
0.16110125 1.6257472 0.59540725 0.83922535 0.719038 0.11519915 0.06919905 0.30340898
1.0772282 0.25700718 0.12931755 0.33831763 0.46838275 0.26354015 0.74655837 0.48394236
0.6160564 0.49918073 0.32642218 0.3777608 0.153786 0.3128555 0.11836876 0.23990291

feat_ext.stem.8.weight f4 [64, 32, 3, 3, 3]
00000000: 5a82 823b 1c1d 03bb 49e5 8b3c 93ce 94bc
00000010: ab13 1d3c db76 1a3c a28b c1bc 740e 833b
00000020: 07db 9fbb e4f7 4c3c c209 93b9 ccc0 ceb9
00000030: 93e6 28bc 4fa6 87bc ce24 0b3c f32b d0bc
00000040: c623 0dbd 22db b3bc 160e a83c cc94 af3c
00000050: ba71 64bc 0015 cf3c 05e6 1b3c af53 04bd
00000060: c8c7 0abd 49f2 f6bc dd03 15bd 9953 cdbc
00000070: c113 d1bb c19e 24bc 4b80 793c 42b6 9c3c
00000080: 6e28 ba3b 5367 d0bb 13b7 903c 0e53 a33c
00000090: b6a3 7e3b 61c9 d43b d1bb 723a b388 4ebc
000000a0: 84bc d8bb 2599 c13c 93aa c0bc 3fd1 84bb
000000b0: 800a ca3a 5c83 a039 b943 0cbd c27c adbc
000000c0: 6fc3 c63b ca6c d6bc 41ed 8abc 2c6a 653c
000000d0: ed18 813a 2558 0cbd e57b bcba f502 b4bb
000000e0: d355 b6bb 1eb8 4c3c a9e8 7dbc 9ab2 c7bb
000000f0: 015a b0bc b514 2cbb 8f62 a6bc 107c 8b3c
00000100: e7eb b83c 7283 08bd 3ab6 073d 3c71 a63c
00000110: 503a cfbb e5e1 fa3c c6b2 e8bb 1086 7f3c
00000120: 9d3a bc3c e796 b1bc f093 f23c 650e fc3c
00000130: 1052 bfbc 45c3 abbc 789b a7ba 36e5 ffbb
00000140: def9 8dbc 1568 f0bc 158d fabc e195 06bc
00000150: 1985 dc3b 0df4 d53c c2a7 873c 3906 3abc
00000160: a9db 61bc e097 0e3b 4f0c 8dbc fd77 52bc
00000170: ad19 f5bc 2e77 dd3c ef9f 6f3c 052a 24bc
00000180: 910f d83c 9c84 563c 78f5 ec3b 1808 ad3c
00000190: ffb1 f23c 2583 85bb 7ae4 cc3a 87bf dfbc
000001a0: 643d 76bb c097 1a3c bd2c 64bc 0f7a 763b
000001b0: 3c63 c938 3048 b6ba bf68 c1bc 1261 e43c
000001c0: e34e b3ba 9aba 74bc e8df f0bb e8b1 71bc
000001d0: 85bc c6bc 8fa4 6e3c 5e50 06bd 3053 023c
000001e0: 85d2 e3bb 83df 25bd dcb8 cdbb bd9d 05bd
000001f0: f5b5 3bbc 8d9a c9bc f5ee 433b bf8b c43b
00000200: cac9 aa3b fec5 b83b bfb4 cfbb bb04 1f3c
00000210: 680e a63b 0f98 923c 1a04 2a3a cdda 35bc
00000220: 0068 8b3b 2132 d73c 0686 b43b 5854 c43c
00000230: 672c c7bc 7268 86bc dc49 24bd 0e1b 2fbb
00000240: 4c3f d9bc cc04 083d 77c6 983c a712 723b
00000250: 1908 ac3c 2685 acbb 6708 17bd 7989 453a
00000260: 5bc3 583c 1d9a 163c fe4b 92bc c472 0fbd
00000270: da72 70bc 8b61 2abb 20be 14bc 7d0c cabc
00000280: 5c2d 87ba d66b f9bb 525d 5d3b 0425 57bb
00000290: 8e06 29bc 8ceb 9839 9ca5 01bd 475f a33c
000002a0: b8e2 223c 48d7 30bc 4c1e fd3c deaf ddbc
000002b0: 29b2 263c 51bc 843b 9b68 d8bb 081d c13b
000002c0: ac5f 953c 0251 14bc b9f4 72bc 8808 e23c
000002d0: 41da 26bc 231b c3bc 7a85 62bc 6f22 bf3c
000002e0: c0ed e53c 2c4a dcbc 753c b4bc c59c aa3c
000002f0: 3d87 20bd 5550 9a3c c4dc 5abc 5742 a6bc
00000300: 64f5 1abc 99e9 0cbc 6e21 90bc 182e 04bc
00000310: 19c4 043d abd4 973c 7c8a 0a3d d574 8f3c
00000320: 90cb 043d 06d7 87bc 12b0 18ba a607 0ebc
00000330: da19 edbb 6be8 1b3c 9406 d4bc 065b 05bd
00000340: c930 bbbc 0aa2 e33c a411 8f3c bdce e53c
00000350: 8572 daba df7f 0cbd 7f77 13bd 24ba 3dbc
00000360: a362 e63c 12de 923c ae69 26ba 9d79 1f3d
00000370: 0771 a2bc c71d c23c dcf8 a9bc a96d b3bc
00000380: f864 efbc bde0 463b a0f7 1bbc 6409 8dbc
00000390: dcf4 c33c 3788 fa3c 8610 40bc 875c e23b
000003a0: 6141 2f3d 38b6 c5bc 5346 f43c 528d 89bc
000003b0: 7e0f 923b f441 f0bc aab2 a63c 4090 183d
000003c0: 44ba c63b 4ca1 113d 11d5 313c 118c d33b
000003d0: 0070 943a bff2 ce3b 6672 5239 d2c5 b63c
000003e0: 8bb3 043d ba8f 8fbc 57f3 a3bb d543 a6bc
000003f0: 49a0 e03c fcab 79bc c3fe 2ebc e702 1cbc
0.0039828243 -0.0020006364 0.017077105 -0.018164909 0.009587209 0.009427751 -0.023626152 0.0039995257
-0.004878405 0.012510274 -0.00028045295 -0.00039435027 -0.010308879 -0.016558794 0.008492662 -0.025411582
-0.034457944 -0.021955077 0.02051453 0.021433257 -0.01394313 0.025278568 0.00951529 -0.03230637
-0.033881932 -0.030144827 -0.036380637 -0.025064277 -0.0063805287 -0.0100476155 0.015228341 0.019129876
0.005681089 -0.0063599735 0.017665422 0.019937064 0.0038854904 0.006493733 0.0009259554 -0.012605834
-0.0066142697 0.023632595 -0.023518836 -0.0040532644 0.0015414506 0.00030615448 -0.034244273 -0.021177653
0.006065778 -0.026174922 -0.016958835 0.014002364 0.0009849347 -0.03426375 -0.0014380185 -0.0054935166
-0.0055644303 0.012495069 -0.015497365 -0.006094289 -0.021527292 -0.002625746 -0.020310668 0.017026931
0.022573425 -0.03332848 0.03313277 0.020317666 -0.00632409 0.030625293 -0.0071013896 0.015595928
0.022977168 -0.021678401 0.029611558 0.030768583 -0.02335456 -0.020967135 -0.0012787422 -0.0078093065
-0.01733106 -0.029346505 -0.030584851 -0.008214445 0.0067297337 0.026117349 0.016559485 -0.011354023
-0.013785281 0.0021758005 -0.017217783 -0.01284599 -0.02991947 0.027034368 0.0146255335 -0.010019784
0.02637461 0.01309314 0.0072314106 0.021122023 0.02962589 -0.0040744715 0.0015632056 -0.027313007
-0.0037573213 0.009435594 -0.013926682 0.0037609374 9.602911e-05 -0.0013907012 -0.023609517 0.027878318
-0.0013680126 -0.014937067 -0.0073509105 -0.014751889 -0.024259815 0.014565601 -0.032791488 0.007954404
-0.006952586 -0.04049636 -0.0062781405 -0.032621134 -0.011456956 -0.024609828 0.0029897068 0.0059981043
0.0052120434 0.005638837 -0.0063386853 0.009705718 0.0050676353 0.017894773 0.00064855965 -0.011099529
0.004254341 0.02626902 0.005509141 0.023966 -0.024313165 -0.016407225 -0.0401095 -0.0026719007
-0.02651944 0.0332077 0.018649323 0.0036937387 0.020999955 -0.005264896 -0.036873247 0.00075354386
0.01323017 0.009192017 -0.017858502 -0.03502156 -0.01467582 -0.0025998082 -0.009078532 -0.024664158
-0.0010313201 -0.007611732 0.0033777547 -0.003282846 -0.010316504 0.00029167195 -0.031652078 0.019942893
0.009941749 -0.010793515 0.030898236 -0.0270614 0.010174313 0.0040507694 -0.006604267 0.0058933534
0.018234096 -0.009052517 -0.014828854 0.027591959 -0.010183872 -0.02381665 -0.013825769 0.023331849
0.02806747 -0.026890837 -0.022001484 0.020826707 -0.039191473 0.018837133 -0.013358299 -0.020295305
-0.00945792 -0.008600616 -0.017594066 -0.00806763 0.032413576 0.018534025 0.033823475 0.017511765
0.032420695 -0.016582023 -0.00058245764 -0.008668816 -0.0072357478 0.009515862 -0.025882043 -0.03255751
-0.022850411 0.027787227 0.017464466 0.028052682 -0.001666621 -0.034301635 -0.036002632 -0.011580024
0.028123206 0.017928157 -0.0006348145 0.03893434 -0.019829286 0.02369584 -0.020748548 -0.021902876
-0.02922295 0.0030346357 -0.009519488 -0.017216392 0.023920469 0.03058253 -0.0117226895 0.006908003
0.04278696 -0.02413474 0.02981869 -0.01679102 0.004457413 -0.029328324 0.020348866 0.037246943
0.006064685 0.035554215 0.010854022 0.006455906 0.0011324883 0.0063155587 0.00020069777 0.022311125
0.032397788 -0.017524589 -0.0050033736 -0.020296017 0.02742018 -0.015238758 -0.010680857 -0.009522176

feat_ext.stem.8.bias f4 [64]
00000000: 55c4 c13c 9219 03bd 6c5f bcbc 4179 1abc
00000010: 72f7 4d3c 9224 10bc fd19 08bc 3e30 443c
00000020: a3ca 66bc 9264 9f3c b60d d03c b92e 86bc
00000030: 0949 e7bb a62e dd3c 81a7 05bd b0ea 473c
00000040: 0f3c 10ba 729c 9b3c 5fab 65bc cda6 dcbc
00000050: a19a 163c d93d cd3c 670c 613a 9f0e 8a3c
00000060: a828 a6bc 7ab0 29bb b348 063d 99dc 3e3b
00000070: ceb5 103c 2ed0 ce3c 62c4 053d ef7b 603c
00000080: 4472 ad3b 609c de3c 05c2 fa3c 6292 9d3b
00000090: c46b d73b 5f0c 673c 064e 083d 269c babc
000000a0: a1d0 023c 1ec7 cbbc 436a e63c ecb1 ddbc
000000b0: 10cd fcbc 5284 ca3b 9db7 1abc c1d1 ebbc
000000c0: 1aed e0bb 79f0 503b eb12 113b 2bc1 a3ba
000000d0: 3d12 ca3c 29a1 b1bb af4c 433c b23d 09bc
000000e0: 7fed 04bd e004 82bb 03c1 dfbc e773 a63c
000000f0: 1581 2fbc 068d 83bc e650 1fbb e71d a2bc
0.023653189 -0.032006808 -0.02299472 -0.009428323 0.012571203 -0.008797782 -0.008306977 0.011974392
-0.014086398 0.019457135 0.025397163 -0.016379701 -0.007058267 0.026999783 -0.032630447 0.01220195
-0.00055021135 0.018995497 -0.014017909 -0.026935006 0.00919214 0.025053905 0.0008584917 0.016852675
-0.020283058 -0.0025892542 0.032784175 0.0029123186 0.008832408 0.025245752 0.03265799 0.013701423
0.0052931625 0.027174175 0.030610094 0.00480871 0.006574126 0.014102071 0.033277534 -0.022779536
0.007984311 -0.02487522 0.028126841 -0.027062379 -0.0308595 0.0061803246 -0.009443191 -0.028786542
-0.006864202 0.0031881614 0.002213652 -0.0012493482 0.0246669 -0.005420823 0.011920138 -0.008376526
-0.032453056 -0.0039678663 -0.027313715 0.020318938 -0.010711928 -0.016058456 -0.0024309694 -0.01978965

feat_ext.stem.9.weight f4 [64]
00000000: 3fe9 7d3f 9901 7f3f a2a4 7d3f 708b 7f3f
00000010: 1f20 7f3f 0e20 7f3f 4136 7e3f 1856 7e3f
00000020: 5ce4 7f3f 998f 7f3f 3852 803f 59ce 7f3f
00000030: 9214 803f d039 7e3f dd6d 813f 27c2 7a3f
00000040: b599 803f f2da 7f3f ee46 803f 2e88 7d3f
00000050: 4a67 7f3f 0a2f 7f3f 155d 7f3f 5e5c 7f3f
00000060: 4c8e 7d3f 9f7f 7f3f c27b 7e3f cda3 803f
00000070: 45bb 7e3f 6a2f 803f 83bf 7f3f b8f3 7e3f
00000080: 668f 7e3f c927 803f 0254 7f3f f35a 7e3f
00000090: 5d58 803f bb9d 7d3f 1625 813f f8ad 7d3f
000000a0: 406b 7d3f 1bf8 803f 686f 803f f201 803f
000000b0: 1306 7f3f ecf7 7e3f e512 7f3f ec51 803f
000000c0: d13f 7f3f 4fc5 803f 8303 7c3f a1a3 7f3f
000000d0: d260 803f 6977 803f ee11 793f f923 803f
000000e0: 069e 7d3f 6ffb 7f3f e393 7e3f 4d2c 803f
000000f0: 981d 813f db0f 813f 42f9 7e3f 08ab 803f
0.9918403 0.9961181 0.99079335 0.9982214 0.9965839 0.99658287 0.99301535 0.9935012
0.99957824 0.9982849 1.0025091 0.99924237 1.0006278 0.99306965 1.0111653 0.979525
1.0046908 0.9994346 1.0021646 0.9903592 0.9976698 0.9968115 0.99751407 0.99750316
0.9904525 0.9980411 0.9940759 1.0049988 0.995045 1.001447 0.999016 0.99590635
0.9943756 1.0012141 0.9973756 0.9935753 1.0026966 0.990688 1.0089443 0.9909358
0.98991776 1.0075716 1.0033998 1.0000594 0.99618644 0.9959705 0.99638206 1.0025
0.9970675 1.0060214 0.9844286 0.9985905 1.0029547 1.0036441 0.97292984 1.0010978
0.9906925 0.9999303 0.9944441 1.001352 1.0087156 1.0082964 0.9959909 1.0052195

feat_ext.stem.9.bias f4 [64]
00000000: 4d30 833a 974d 9f3b 17c6 3cba 51f0 a43b
00000010: b45e aa39 b45a 9239 6819 b33b 0167 633b
00000020: 6f0a 453b bc20 0a3b ffc8 863b 3afd 6a3a
00000030: f5e2 b23b 6cae 593a 935f 6e3c 378b 46bc
00000040: e5c9 e93a 7a4b bc3b 8d35 153c 4022 87bb
00000050: 158b 933b f757 0839 a0f3 3b3b 1c23 553b
00000060: a092 2ebb 3593 b8b9 fb29 62bb d147 483b
00000070: 7d0c ea39 0c1b a33b 31c0 a9b9 782a a53b
00000080: 68a5 9dba bcb5 243c d73f e63a 3067 1cba
00000090: d194 13ba f53c a2bb 445b 203c 33a4 c5bb
000000a0: fbbe 813a 3cec 7c3b 2aad a13a 2e59 85ba
000000b0: 8d9a 243b a136 503b b984 553b 62b4 703a
000000c0: 6d92 533b 1a11 843b 68f4 15bc 7b3b 6f3a
000000d0: b759 a63b cf2d c73a 54aa 97bc 575b 05ba
000000e0: 90b2 41bb fb73 913b 6b94 f43a 55cf cf3b
000000f0: 4acc 483a 4412 4fbb 07ea e03b de93 373c
0.0010008902 0.0048615444 -0.00072011485 0.0050335308 0.00032495486 0.0002791487 0.005465675 0.0034698846
0.0030066033 0.002107664 0.004113316 0.00089641253 0.0054591843 0.0008303884 0.014549154 -0.012118152
0.0017836659 0.005746302 0.009107006 -0.004123956 0.004502664 0.0001300274 0.0028679147 0.0032522148
-0.0026637688 -0.00035204893 -0.0034509886 0.0030560384 0.00044641263 0.0049775895 -0.00032377386 0.005040463
-0.0012027444 0.0100530945 0.0017566633 -0.0005966304 -0.00056297804 -0.0049511143 0.009787384 -0.006031537
0.0009898836 0.0038592955 0.0012334932 -0.0010173672 0.0025116534 0.0031770843 0.003258033 0.00091821526
0.0032283321 0.004030359 -0.009152509 0.000912599 0.005076613 0.0015196147 -0.018513836 -0.0005087158
-0.0029555894 0.004438875 0.0018659955 0.0063418546 0.0007659836 -0.003159658 0.0068638357 0.011204688

feat_ext.stem.9.running_mean f4 [64]
00000000: 3427 72bf 1468 0ebf b0f7 6cbf d624 21bf
00000010: 1c2f 43bf 5139 f6be b927 8a3f 3397 b0bf
00000020: 942f cfbe bbfb 59bf f77d 13bf e672 d8be
00000030: baed 8fbe 104e c5bc c321 52bf f3c5 333f
00000040: e1d7 67bf c15c c0be ca59 0bbf c9d5 ac3f
00000050: 74fc 53bf 333f 4abf 9eb2 b2bd f7a6 a0be
00000060: 10ea 5cbf 3f8d 81bf 730b 28be d9ce 18bf
00000070: 6818 c8be 27bf 82bf 202d 60bf 65f8 a6bf
00000080: 8605 213f faaa 803c 4120 68be e2ed b23f
00000090: 22df 18bf 04e7 45bf fa0d f13e 85bc d6be
000000a0: 008d 163e 7983 c9be 0145 8cbf 45d8 2dbf
000000b0: 28bc 45bf a6dd 8cbf eebb cbbe c453 debf
000000c0: b5f1 48bf bec5 92be 06a0 313f 9424 4fbf
000000d0: 818d 023f 0357 e7be 8d71 373f 05cf 0ebf
000000e0: b7c7 963e 0e98 c4be 9cd8 a2be 0ac2 61bf
000000f0: edd9 ad3e 9dcd 30bf 16c8 1bbc af06 cdbf
-0.9459107 -0.5562756 -0.9256544 -0.6294683 -0.7624376 -0.48090604 1.0793372 -1.3796142
-0.40465987 -0.85149735 -0.5761408 -0.4227516 -0.28111058 -0.024085075 -0.82082766 0.7022392
-0.9056378 -0.37570766 -0.5443388 1.3502742 -0.8280709 -0.79002684 -0.08725475 -0.31377384
-0.8629465 -1.012123 -0.16410618 -0.59690624 -0.3908112 -1.0214585 -0.87568855 -1.3044554
0.62899053 0.015706528 -0.22668554 1.3978846 -0.59715474 -0.77305627 0.47080976 -0.41940704
0.14702225 -0.39358118 -1.0958558 -0.67908126 -0.7724023 -1.1005142 -0.39791816 -1.7369313
-0.78493816 -0.2866649 0.693848 -0.8091519 0.5099717 -0.45183572 0.7165764 -0.55784637
0.29449245 -0.3839726 -0.31805885 -0.88186705 0.33955327 -0.6906374 -0.009508153 -1.6017665

feat_ext.stem.9.running_var f4 [64]
00000000: 9422 a03f f647 093e d699 ed3f 6889 fc3d
00000010: 88b2 543e d7e8 063e 4bff e63e 96f8 d33f
00000020: 7611 223e c955 223e b56d 233f 81ed 083e
00000030: 5265 143e 799a 513e 5bcc 013f 2fe4 973f
00000040: 32e8 fa3d 613a a13e 2a03 dc3d b18a 693f
00000050: 8017 853e e5de f23f b3c8 513f 69a1 5e3e
00000060: f5d4 c03f 4ecc 2140 54ad cb3d acba 7c3e
00000070: 9ab4 963e 97a8 5d3e aa22 733e 8733 e23f
00000080: 9878 303e 0b90 1d3e 4589 433f 1ec3 293f
00000090: 6977 3a3e ccb9 d13e ef04 403e 2f5a 5e3e
000000a0: e8d6 0f3e cb7a 393e 68c1 673e e23c 353e
000000b0: d6bf 723e 4b5d c53f adc1 c73e 49d2 af3f
000000c0: 9f4a 9f3e e753 c93d 8b1a be3e 345b a03e
000000d0: 3640 943e b225 173e 71c1 353f 2b33 963e
000000e0: d883 613e 1afa 503e 6e48 473f 4066 e43e
000000f0: ad5c f23d ba5a 223e 9a38 123f d6b5 ae3e
1.2510552 0.13406357 1.8562572 0.12330896 0.2077123 0.13174759 0.45116648 1.6560237
0.15826973 0.15853037 0.63839275 0.1337185 0.14491776 0.20469083 0.50702447 1.1866511
0.12251319 0.31489852 0.10742791 0.9122725 0.25994492 1.8974272 0.8194687 0.2174126
1.5064989 2.5280948 0.09945169 0.24680585 0.29434663 0.21646343 0.23743692 1.7671975
0.17233503 0.1538698 0.7638133 0.6631335 0.18209614 0.40962064 0.18751882 0.2171409
0.14046824 0.18113248 0.22632372 0.17699006 0.23705992 1.5419096 0.3901495 1.3736049
0.3111162 0.09830456 0.37129626 0.31319582 0.2895524 0.14760473 0.70998293 0.29335913
0.2202295 0.20407906 0.77844894 0.4460926 0.11834083 0.15854922 0.5711762 0.34123105

pos_enc.pe f4 [150, 64]
00000000: 0000 0000 0000 803f 0000 0000 0000 803f
00000010: 0000 0000 0000 803f 0000 0000 0000 803f
00000020: 0000 0000 0000 803f 0000 0000 0000 803f
00000030: 0000 0000 0000 803f 0000 0000 0000 803f
00000040: 0000 0000 0000 803f 0000 0000 0000 803f
00000050: 0000 0000 0000 803f 0000 0000 0000 803f
00000060: 0000 0000 0000 803f 0000 0000 0000 803f
00000070: 0000 0000 0000 803f 0000 0000 0000 803f
00000080: 0000 0000 0000 803f 0000 0000 0000 803f
00000090: 0000 0000 0000 803f 0000 0000 0000 803f
000000a0: 0000 0000 0000 803f 0000 0000 0000 803f
000000b0: 0000 0000 0000 803f 0000 0000 0000 803f
000000c0: 0000 0000 0000 803f 0000 0000 0000 803f
000000d0: 0000 0000 0000 803f 0000 0000 0000 803f
000000e0: 0000 0000 0000 803f 0000 0000 0000 803f
000000f0: 0000 0000 0000 803f 0000 0000 0000 803f
00000100: a46a 573f 4151 0a3f ce7a 2e3f b054 3b3f
00000110: ba7d 083f 0d94 583f f090 d13e c792 693f
00000120: 3e39 9f3e 6b4e 733f 258f 703e f1d5 783f
00000130: 3a23 353e 83f6 7b3f f325 083e 28ba 7d3f
00000140: 7675 cc3d 98b8 7e3f 366f 993d d147 7f3f
00000150: ae36 663d 6898 7f3f fbac 2c3d bdc5 7f3f
00000160: 5b81 013d 3cdf 7f3f a53e c23c 93ed 7f3f
00000170: 42ab 913c a3f5 7f3f 497a 5a3c 2cfa 7f3f
00000180: 57d6 233c b9fc 7f3f 16b9 f53b 28fe 7f3f
00000190: 5a44 b83b f7fe 7f3f 5a2e 8a3b 6bff 7f3f
000001a0: 1c3e 4f3b acff 7f3f 0369 1b3b d1ff 7f3f
000001b0: 2015 e93a e6ff 7f3f 8ac9 ae3a f1ff 7f3f
000001c0: 6d12 833a f8ff 7f3f 8994 443a fbff 7f3f
000001d0: 136a 133a fdff 7f3f 2117 dd39 ffff 7f3f
000001e0: 61cb a539 ffff 7f3f 0da8 7839 0000 803f
000001f0: 5377 3a39 0000 803f 6dd4 0b39 0000 803f
00000200: b7c7 683f 3311 d5be d95a 7f3f 534d 913d
00000210: 0af2 663f b2e8 dc3e 1135 3f3f 0339 2a3f
00000220: 1b54 173f ec7b 4e3f b5d3 e93e 69be 633f
00000230: f647 b23e a6fa 6f3f 82f0 863e f5f2 763f
00000240: f86f 4b3e a5e5 7a3f d300 193e 4f20 7d3f
00000250: 86d9 e53d f361 7e3f af85 ac3d 0e17 7f3f
00000260: c870 813d f97c 7f3f aa30 423d 4eb6 7f3f
00000270: 5ca5 113d 8ed6 7f3f 5075 da3c b1e8 7f3f
00000280: 3ed4 a33c e5f2 7f3f 51b7 753c a1f8 7f3f
00000290: 9b43 383c dbfb 7f3f 0a2e 0a3c abfd 7f3f
000002a0: d83d cf3b b1fe 7f3f e768 9b3b 43ff 7f3f
000002b0: 0815 693b 96ff 7f3f 7fc9 2e3b c4ff 7f3f
000002c0: 6812 033b dfff 7f3f 8594 c43a edff 7f3f
000002d0: 126a 933a f5ff 7f3f 1f17 5d3a faff 7f3f
000002e0: 60cb 253a fdff 7f3f 0ca8 f839 feff 7f3f
000002f0: 5377 ba39 ffff 7f3f 6dd4 8b39 0000 803f
00000300: c381 103e 2670 7dbf de3c 473f cebf 20bf
00000310: d745 7e3f ab7f edbd 6321 743f 6318 9a3e
00000320: c209 503f 582f 153f b724 273f a2e7 413f
00000330: 6c2f 023f 296d 5c3f a768 c73e 37c9 6b3f
00000340: 6c4e 973e ef90 743f e26d 643e 928c 793f
00000350: d7ee 2b3e 9e5d 7c3f 2c33 013e 43f4 7d3f
00000360: c0ff c13d 4fd9 7e3f 0693 913d 3a5a 7f3f
00000370: 4e69 5a3d c3a2 7f3f c5d1 233d 90cb 7f3f
00000380: 1fb9 f53c 83e2 7f3f 4747 b83c 6bef 7f3f
00000390: c631 8a3c adf6 7f3f 4644 4f3c c1fa 7f3f
000003a0: 0d6e 1b3c 0dfd 7f3f 131d e93b 58fe 7f3f
000003b0: a8cf ae3b 11ff 7f3f 1317 833b 7aff 7f3f
000003c0: 929b 443b b5ff 7f3f 606f 133b d6ff 7f3f
000003d0: 171f dd3a e8ff 7f3f 56d1 a53a f3ff 7f3f
000003e0: 10b1 783a f9ff 7f3f 097e 3a3a fcff 7f3f
000003f0: 7ed9 0b3a feff 7f3f a4be d139 ffff 7f3f
0.0 1.0 0.0 1.0 0.0 1.0 0.0 1.0
0.0 1.0 0.0 1.0 0.0 1.0 0.0 1.0
0.0 1.0 0.0 1.0 0.0 1.0 0.0 1.0
0.0 1.0 0.0 1.0 0.0 1.0 0.0 1.0
0.0 1.0 0.0 1.0 0.0 1.0 0.0 1.0
0.0 1.0 0.0 1.0 0.0 1.0 0.0 1.0
0.0 1.0 0.0 1.0 0.0 1.0 0.0 1.0
0.0 1.0 0.0 1.0 0.0 1.0 0.0 1.0
0.84147096 0.54030234 0.68156135 0.731761 0.53316844 0.8460091 0.4093089 0.9123959
0.3109836 0.9504153 0.23492105 0.9720145 0.17689219 0.9842302 0.13295726 0.99112177
0.099833414 0.9950042 0.07491915 0.9971896 0.05620449 0.9984193 0.042157155 0.999111
0.031617504 0.99950004 0.023711512 0.99971884 0.017781857 0.99984187 0.013334819 0.99991107
0.009999833 0.99995 0.0074988706 0.99997187 0.0056233825 0.9999842 0.0042169513 0.9999911
0.0031622713 0.999995 0.0023713715 0.9999972 0.0017782785 0.99999845 0.001333521 0.9999991
0.0009999998 0.9999995 0.000749894 0.9999997 0.0005623411 0.9999998 0.00042169637 0.99999994
0.00031622782 0.99999994 0.00023713727 1.0 0.00017782794 1.0 0.00013335208 1.0
0.9092974 -0.41614684 0.99748 0.070948265 0.9021307 0.43146282 0.7469035 0.6649324
0.5911271 0.8065784 0.45669332 0.8896242 0.34820527 0.93741834 0.26355368 0.96464473
0.19866931 0.9800666 0.1494172 0.98877424 0.1122313 0.9936821 0.084239356 0.99644554
0.063203394 0.9980007 0.04740969 0.9988755 0.03555809 0.9993676 0.026667267 0.99964434
0.019998666 0.9998 0.014997319 0.9998875 0.011246587 0.99993676 0.008433828 0.9999644
0.006324511 0.99998003 0.00474273 0.99998873 0.0035565514 0.9999937 0.0026670394 0.9999964
0.0019999985 0.99999803 0.0014997876 0.99999887 0.0011246821 0.99999934 0.0008433926 0.99999964
0.0006324556 0.9999998 0.0004742745 0.9999999 0.00035565588 0.99999994 0.00026670416 1.0
0.14112 -0.9899925 0.7782725 -0.6279267 0.9932532 -0.11596616 0.95363444 0.3009673
0.8126489 0.58275366 0.652904 0.7574407 0.5085361 0.86104065 0.3894703 0.92103904
0.2955202 0.9553365 0.22307542 0.9748012 0.16790329 0.9858035 0.12617177 0.9920084
0.094726086 0.99550337 0.071081206 0.9974705 0.053323083 0.9985773 0.039994974 0.99919987
0.0299955 0.99955004 0.022494925 0.999747 0.016869437 0.9998577 0.012650555 0.99991995
0.009486687 0.999955 0.0071140616 0.9999747 0.005334813 0.99998575 0.0040005534 0.999992
0.0029999954 0.9999955 0.0022496805 0.9999975 0.0016870227 0.99999857 0.0012650888 0.9999992
0.00094868336 0.9999996 0.00071141176 0.99999976 0.0005334838 0.9999999 0.00040005625 0.99999994

transformer.layers.0.self_attn.in_proj_weight f4 [192, 64]
00000000: fbc5 1dbd 5ea5 113c 1909 813c d71d e53d
00000010: 28aa f23d bab9 c03d 9b5c f0bd b43d 59bd
00000020: f48d cebd 00bc 593d a619 fabd 4fe1 3c3d
00000030: 8904 02bd f28c 8d3d df3e c63d 8d93 a8bd
00000040: cd58 133e 2449 3dbd 7cb1 9e3d fd36 d5bd
00000050: a9af 28bd 7f65 cabd 64e4 fb3d 8128 583c
00000060: e933 18be 579d 5b3d c7aa d0bd 94dc bf3c
00000070: 3c88 833d f320 8dbc aec6 0dbd 436b 0fbe
00000080: dcda 693d 2600 26bb 5689 0e3e 15e3 03be
00000090: ac4a a2bd 1094 1c3e 8e6a 293d 2d28 4ebd
000000a0: 23f7 fc3d 2ac2 083e fee4 7d3d 890c 6cbd
000000b0: dfe9 ecbd 3d15 e03c ebca f9bd d8d5 c13c
000000c0: 5c99 a7bd 9ec8 c4bd c682 5f3c 5f52 16bd
000000d0: e68a 953d e66b f0bd 18aa 1e3e 7e95 fbbd
000000e0: 66c5 383d ce45 d43d 817f 8f3c aa1d e03d
000000f0: f101 e8bd 8c3d 9f3d 9886 593d 32d8 85bd
00000100: 3b3d db3d bb9d a4bd 6306 cb3d 923b ca3d
00000110: 2661 263e dc64 f4bd 1106 c2bd cfe5 913d
00000120: faf7 c3bd d7e6 023d 45e8 cd3c 4f5c aebd
00000130: be3d 8abd ae1d 813d 530d ccbd e253 de3d
00000140: 433c cdbd 540b 06be f3c7 fd3d 51e1 fe3d
00000150: 537c e0bd 65bf 10be 97be 0ebe 322c efbd
00000160: 076c dc3d 0b68 a13c 9a21 853d f6c5 923d
00000170: 7ad8 173e 2043 72bd 85f5 473c 360b 693d
00000180: 64e5 a83c 3d43 143e 2dd1 83bd ebfb 623d
00000190: a194 b03d 6c10 423d 766b 263d 41f6 c7bc
000001a0: 8a98 abbd 47c2 b53b 5e37 d33d 8e4d 693d
000001b0: 4f93 a83d ed40 e43d bb45 f53d de16 90bb
000001c0: 6f6a f23c cdc4 70bd ddd4 01be 4945 e43d
000001d0: 9154 25bd f391 ab3d c48c 123e 8e3e 253e
000001e0: 9f3f 51bd 2c52 cabd 496f 5b3d 39c0 db3d
000001f0: 66bf f7bd 2962 ecbd 889e 1ebe 5e1a 0e3e
00000200: fbef db3d 6f99 883d 56a4 23bd 9fd3 103c
00000210: e136 0a3e f1b0 f0bd 77d0 283d d524 fe3d
00000220: d1b5 a8bd 8bf5 7c3d 5257 893d 7ee1 04bc
00000230: e41d cdbb c1a6 e33d edee 98bc 6008 a73d
00000240: 4785 003e 887b c3bd 05f7 763d 6b59 1f3c
00000250: 994b b0bd e144 75bd 379f 9fbc 469b 0d3d
00000260: 7456 f83a 2abc f9bd 369c 183c 658c 603c
00000270: 416f dcbd 4221 f13d 0b19 0bbe 7396 34bd
00000280: 60f4 12bc 25b0 1a3e 2e72 0dbe 3e5c 05be
00000290: 94bc eb3c a8c9 04be b1b1 46bd b323 abbd
000002a0: a947 373c f5d9 153e 1a73 d53b 97ae ce3d
000002b0: d4e2 223e 45ba 5cbd bb4d 703d a602 ebbd
000002c0: e5e9 673d bdea 343c 8970 a4bd 7ff6 153e
000002d0: 1ffb cebd 7551 c13d 4514 153d fa2d c43d
000002e0: d6dd fc3d e288 0c3e ed1e 0abd 21c8 2d3d
000002f0: 124e a8bd d2a1 e63d cf8b 18bd 0777 ed3d
00000300: f9dd f73d da6f c03d f6ba bbbc a3f7 af3d
00000310: 3576 463d b52d 003e d90e 17bd 8fe8 acbd
00000320: c665 253c fcd2 3c3d 0c6d d63d 255f 453d
00000330: 791b 1abe adcd d33c 3d15 aebd e946 f13c
00000340: 5713 1d3d 34ad cdbd 264e 4bbd 8bbb 45bd
00000350: cda3 38bc bfef b1bd 6307 e53d 5bab a0bc
00000360: cb8b 373d eeb2 1a3d dfad 7abd be1b 5d3c
00000370: 3c4e 053e 88f3 a1bd e204 4bbb b4bf b5bd
00000380: 7fdb d2bc 9c1d 3a3d fdf0 233d 17dd 98bc
00000390: 0711 553d b580 a43c cd39 e33d 37dd a1bd
000003a0: 24c4 9cbd 4c3f 69bd 218c 8ebc ad83 0bbe
000003b0: 7d7a 0c3e ce34 a2bd dc16 e63d d5da 9b3d
000003c0: 5a62 ebbd e46d b23c 5a02 d6bd 502b d3bd
000003d0: 9f5d 16be 6d89 163e 72c5 6d3d 7a68 67bd
000003e0: 36e5 c3bd fea5 233a 9957 e2bd 844f 023d
000003f0: c92c ac3d 3d39 fbbc 3457 0d3e 0d86 e3bc
-0.038518887 0.008889524 0.015751408 0.11187332 0.11848861 0.094104245 -0.11736413 -0.05303736
-0.10085669 0.053157806 -0.12211923 0.04611331 -0.031742606 0.06911649 0.096799605 -0.08231268
0.14389344 -0.04621233 0.07748696 -0.10410879 -0.041183148 -0.0988264 0.122994214 0.013193251
-0.14863552 0.053616848 -0.10188823 0.02342061 0.06422469 -0.017227625 -0.034613304 -0.14005761
0.057093486 -0.0025329678 0.13919577 -0.12879594 -0.07924399 0.15290856 0.041361384 -0.050331283
0.12351825 0.13355318 0.061985962 -0.057629142 -0.11568045 0.027353877 -0.12196907 0.023661539
-0.08183548 -0.09608577 0.013642019 -0.03669965 0.073018834 -0.1173933 0.15494573 -0.12284373
0.04511013 0.10364877 0.017516853 0.10943158 -0.11328495 0.07775411 0.053106874 -0.065353766
0.10705038 -0.08037897 0.099133275 0.098746434 0.16247997 -0.119333 -0.09473813 0.07123911
-0.09568782 0.031958427 0.025135169 -0.085137 -0.06750058 0.06304489 -0.09963479 0.10855843
-0.1002126 -0.13090259 0.12391653 0.124453194 -0.10961213 -0.14135511 -0.13939892 -0.116783515
0.10762792 0.019702932 0.065005496 0.07166664 0.14828673 -0.059146047 0.0122045325 0.056895457
0.020617194 0.14478774 -0.064363815 0.05541603 0.08622099 0.047378942 0.040629826 -0.024409415
-0.08378704 0.0055468413 0.10313295 0.056958728 0.08231222 0.11145196 0.11976191 -0.004397257
0.029591767 -0.058781434 -0.12678857 0.111460276 -0.040363852 0.08377447 0.1431151 0.16137144
-0.051086064 -0.09878954 0.053572927 0.10730023 -0.12097053 -0.1154216 -0.15490162 0.13877246
0.10739132 0.0666989 -0.039951645 0.008839517 0.13497497 -0.11752499 0.041214433 0.12409369
-0.08237804 0.061757606 0.06706108 -0.008110402 -0.0062596668 0.1111579 -0.018668616 0.08155894
0.12550841 -0.09545046 0.06029417 0.009725909 -0.08608169 -0.05988014 -0.0194851 0.03457191
0.0018946663 -0.121940926 0.009314587 0.013705348 -0.107634075 0.117739215 -0.13583772 -0.044088792
-0.008969396 0.15106256 -0.13813087 -0.13023469 0.028776444 -0.12967551 -0.048509303 -0.083564185
0.011186519 0.14633925 0.0065139653 0.10091894 0.1590684 -0.053888578 0.05866788 -0.114751145
0.056619544 0.011042294 -0.08029277 0.14644812 -0.10106491 0.09439365 0.036396284 0.09579082
0.12346999 0.13724092 -0.0337209 0.042427186 -0.08218016 0.112613335 -0.037242707 0.11594968
0.12102885 0.09396334 -0.022916298 0.08592155 0.048452575 0.12517436 -0.036879394 -0.084427945
0.010095065 0.046099648 0.10470018 0.04818644 -0.15049542 0.02585491 -0.08500145 0.029452758
0.038348522 -0.100428015 -0.049635075 -0.048274558 -0.011269522 -0.08688306 0.111830495 -0.019612959
0.04481105 0.037768297 -0.061200973 0.013495384 0.13018125 -0.07907778 -0.0030978252 -0.08874455
-0.02573943 0.045438394 0.040024746 -0.018660111 0.05201819 0.020080904 0.11095009 -0.079035215
-0.07654598 -0.05694513 -0.017400803 -0.13624449 0.137186 -0.07920228 0.11234829 0.07610098
-0.114933684 0.021780916 -0.10449667 -0.103109956 -0.14684151 0.14700861 0.058049627 -0.05649612
-0.09565203 0.00062426913 -0.11051864 0.031814113 0.084069796 -0.030666942 0.13802797 -0.027773881

transformer.layers.0.self_attn.in_proj_bias f4 [192]
00000000: 5091 d339 3a69 a23c bb0b 8d39 14d1 703b
00000010: a9e1 3f3c 05e1 793b ed88 da3c 0635 4ebc
00000020: d242 903c 9951 d7bc 95ec cbbc 735e bfba
00000030: 047d 2a3c 4aa8 b7bc 91cd d4bb 7c95 4f3c
00000040: 290f 9c3c 85c3 abbc 74ae 6abc 5742 43bc
00000050: cea3 0abc bb84 803c ed83 563c f482 f9bb
00000060: 3af9 cb3c 9954 a43c 2273 623b fb53 d0bc
00000070: edf5 8ebc c8df 963b 2e28 923b d11d 443a
00000080: 7dd8 f6bc b663 a7bc efa0 fb3c c97a bfbc
00000090: 2c44 39bc 6811 d3bc 4d5f 763b 71ea 8d3c
000000a0: 9531 d2bc a1be b6bc f103 9a3c 3f7d 00bb
000000b0: 33ec 08bd 0814 4f3b 0c56 0abd 5e88 cebc
000000c0: fd9c b73c ebd8 a1bc 3fd5 703c 8a9b c73c
000000d0: 075a df39 227f 41bc b450 fcbc c716 0abc
000000e0: 3d86 e83c 4b87 7dbc 9db7 dfbc 4c7e c63c
000000f0: 0cb6 ad3c 34b9 66bc adc4 d7bc 3b2b 563c
00000100: 10e3 9737 06c0 7536 00de 8737 f5e2 5437
00000110: d591 cb37 2870 06b7 88bb 06b7 25fb b136
00000120: cfab 5eb6 b852 16b7 db8a 9ab7 9ac6 1c37
00000130: aedc 31b7 32d6 a4b6 4021 9037 fd5e 9db7
00000140: 2b83 2db7 a9a9 4b36 1e29 dbb6 3096 4cb8
00000150: 7a21 2eb7 2a8e 8db7 0a89 e635 382a 66b7
00000160: 6af4 c836 e8ea 3337 cc66 8c36 3ca9 0538
00000170: caa4 4038 24fb ec37 268b 6db7 cc16 c6b6
00000180: 8af3 1cb5 3c99 92b7 43d7 0e37 207a c0b7
00000190: 90de 9737 96bd c637 0eb4 1737 d2ad fc37
000001a0: 9683 2bb7 de7a 2cb6 3c03 6537 62e5 a935
000001b0: 73a9 37b7 0dde ab36 722f b7b7 2ae6 97b6
000001c0: 9e92 0b37 013c 3937 ffa8 a6b6 4d7a 85b6
000001d0: 2d53 8eb7 58e5 9137 7961 1a37 b60a 5537
000001e0: df40 0735 8c00 62b7 4536 6d37 544b b7b7
000001f0: 5fcf d2b6 1ffe 08b6 2f96 c337 21e1 13b7
00000200: 48b3 f639 3a02 90bc 91df 8c3c d052 e0bb
00000210: ab90 643c 79ad b93c ddd2 66bc a05b 0aba
00000220: 1bb0 81bc abf6 6abb de16 39bc 14f4 d63b
00000230: 5c84 8cbc e2d2 91bc c42a 843c c0a8 aebb
00000240: 2072 80bc b4b7 1ebc 170d 95bc 7596 b1bc
00000250: 56cd 9fbc b53c 7abc b817 7abc b266 873c
00000260: 0da1 82bc bb72 ed3b 2d7b fabb 96ff 473c
00000270: 4c63 063c 2b9d a1bc 5b07 613c bca5 e4bb
00000280: 6bd8 a73c 95b1 4bba 9f41 453c e358 103c
00000290: d82b 52bc 3354 c7bc 03cf 603c 5b84 96bc
000002a0: d612 943c 4264 9abc edbc a93c 5f37 7c3c
000002b0: 9450 4ebb 418c 94bb b4bd 8f3b aea9 cb3c
000002c0: cb59 68bc 5126 66bc 8ccd a9bb 15b3 19bc
000002d0: 1ccb b03c 1047 b1bc 0de5 4bba 72d4 e13b
000002e0: e7ed 7bbc 6d68 06bc 1f4e 0bbc 5d66 c13c
000002f0: 6d40 623b 8d21 933c d2df 7d3c cd12 9d3c
0.00040353322 0.019825567 0.00026902356 0.0036745714 0.011711516 0.0038128507 0.02667662 -0.012585884
0.017609987 -0.026284026 -0.024893085 -0.0014600292 0.010405783 -0.022419114 -0.006494232 0.012669917
0.019050198 -0.020967254 -0.014323819 -0.011917672 -0.008461906 0.01568829 0.013092977 -0.007614488
0.024899114 0.02005987 0.0034553488 -0.02543067 -0.01745125 0.0046043135 0.004460356 0.00074812496
-0.030132527 -0.020433288 0.030716388 -0.023373978 -0.011307757 -0.025765136 0.0037593425 0.017323704
-0.025658408 -0.022307696 0.018800708 -0.0019605902 -0.033428382 0.0031597633 -0.033773467 -0.02521151
0.022413725 -0.019756755 0.014699279 0.024366159 0.0004260095 -0.011810096 -0.030800201 -0.008428282
0.028384322 -0.015474151 -0.027309233 0.024230145 0.02120497 -0.014082242 -0.0263389 0.01307183
1.8106337e-05 3.6619617e-06 1.619663e-05 1.2689027e-05 2.4267394e-05 -8.013136e-06 -8.030685e-06 5.304248e-06
-3.3180584e-06 -8.959956e-06 -1.842289e-05 9.344565e-06 -1.0601403e-05 -4.9125165e-06 1.7181621e-05 -1.876009e-05
-1.03421435e-05 3.0348112e-06 -6.5314953e-06 -4.8777263e-05 -1.0379003e-05 -1.687471e-05 1.7176219e-06 -1.3718898e-05
5.988918e-06 1.0723925e-05 4.1842923e-06 3.1867283e-05 4.592984e-05 2.8250339e-05 -1.4158699e-05 -5.9035137e-06
-5.8468925e-07 -1.7475912e-05 8.513979e-06 -2.2945052e-05 1.8104241e-05 2.3691722e-05 9.042224e-06 3.0121682e-05
-1.02230315e-05 -2.5701515e-06 1.3650217e-05 1.265824e-06 -1.0947103e-05 5.1220472e-06 -2.1837393e-05 -4.5269453e-06
8.319183e-06 1.104083e-05 -4.9668593e-06 -3.9779466e-06 -1.696645e-05 1.7392143e-05 9.20181e-06 1.2698283e-05
5.038582e-07 -1.3470777e-05 1.4138936e-05 -2.1850377e-05 -6.282629e-06 -2.0413497e-06 2.3315746e-05 -8.8143e-06
0.0004705435 -0.017579187 0.017196449 -0.0068458095 0.013950507 0.022665726 -0.01408836 -0.00052779354
-0.015831044 -0.0035852592 -0.011296956 0.006559858 -0.017152958 -0.017800752 0.016133673 -0.005330175
-0.015679419 -0.009687353 -0.018194718 -0.021678189 -0.019507091 -0.015273263 -0.015264444 0.016528461
-0.015945936 0.007246343 -0.007644078 0.0122069325 0.008202385 -0.019728264 0.013734664 -0.006977765
0.020488938 -0.0007770297 0.012039571 0.008810255 -0.012827836 -0.024332142 0.01372123 -0.018373659
0.018075388 -0.018846635 0.02071997 0.015394061 -0.0031481134 -0.004533321 0.004386628 0.024861183
-0.014181565 -0.014047221 -0.005181974 -0.009381075 0.021581225 -0.02164033 -0.00077779667 0.0068917805
-0.015376545 -0.008203608 -0.008502512 0.02360838 0.0034523264 0.017960334 0.015495257 0.019174004
